backend: tensorflow
class_name: Model
config:
  input_layers:
  - - input_1
    - 0
    - 0
  layers:
  - class_name: InputLayer
    config:
      batch_input_shape: !!python/tuple
      - null
      - 200
      - 1024
      - 200
      - 1
      dtype: float32
      name: input_1
      sparse: false
    inbound_nodes: []
    name: input_1
  - class_name: Conv3D
    config:
      activation: linear
      activity_regularizer: null
      bias_constraint: null
      bias_initializer:
        class_name: Zeros
        config:
          dtype: float32
      bias_regularizer: null
      data_format: channels_last
      dilation_rate: &id001 !!python/tuple
      - 1
      - 1
      - 1
      dtype: float32
      filters: 32
      kernel_constraint: null
      kernel_initializer:
        class_name: GlorotUniform
        config:
          dtype: float32
          seed: null
      kernel_regularizer: null
      kernel_size: !!python/tuple
      - 7
      - 7
      - 7
      name: conv3d
      padding: same
      strides: !!python/tuple
      - 2
      - 2
      - 2
      trainable: true
      use_bias: true
    inbound_nodes:
    - - - input_1
        - 0
        - 0
        - {}
    name: conv3d
  - class_name: MaxPooling3D
    config:
      data_format: channels_last
      dtype: float32
      name: max_pooling3d
      padding: same
      pool_size: !!python/tuple
      - 3
      - 3
      - 3
      strides: !!python/tuple
      - 2
      - 2
      - 2
      trainable: true
    inbound_nodes:
    - - - conv3d
        - 0
        - 0
        - {}
    name: max_pooling3d
  - class_name: BatchNormalizationV1
    config:
      axis:
      - 4
      beta_constraint: null
      beta_initializer:
        class_name: Zeros
        config:
          dtype: float32
      beta_regularizer: null
      center: true
      dtype: float32
      epsilon: 0.001
      gamma_constraint: null
      gamma_initializer:
        class_name: Ones
        config:
          dtype: float32
      gamma_regularizer: null
      momentum: 0.99
      moving_mean_initializer:
        class_name: Zeros
        config:
          dtype: float32
      moving_variance_initializer:
        class_name: Ones
        config:
          dtype: float32
      name: batch_normalization_v1
      scale: true
      trainable: true
    inbound_nodes:
    - - - max_pooling3d
        - 0
        - 0
        - training: true
    name: batch_normalization_v1
  - class_name: Activation
    config:
      activation: relu
      dtype: float32
      name: activation
      trainable: true
    inbound_nodes:
    - - - batch_normalization_v1
        - 0
        - 0
        - {}
    name: activation
  - class_name: Conv3D
    config:
      activation: linear
      activity_regularizer: null
      bias_constraint: null
      bias_initializer:
        class_name: Zeros
        config:
          dtype: float32
      bias_regularizer: null
      data_format: channels_last
      dilation_rate: *id001
      dtype: float32
      filters: 32
      kernel_constraint: null
      kernel_initializer:
        class_name: GlorotUniform
        config:
          dtype: float32
          seed: null
      kernel_regularizer: null
      kernel_size: &id002 !!python/tuple
      - 1
      - 1
      - 1
      name: conv3d_1
      padding: same
      strides: &id003 !!python/tuple
      - 1
      - 1
      - 1
      trainable: true
      use_bias: true
    inbound_nodes:
    - - - activation
        - 0
        - 0
        - {}
    name: conv3d_1
  - class_name: Conv3D
    config:
      activation: linear
      activity_regularizer: null
      bias_constraint: null
      bias_initializer:
        class_name: Zeros
        config:
          dtype: float32
      bias_regularizer: null
      data_format: channels_last
      dilation_rate: *id001
      dtype: float32
      filters: 32
      kernel_constraint: null
      kernel_initializer:
        class_name: GlorotUniform
        config:
          dtype: float32
          seed: null
      kernel_regularizer: null
      kernel_size: *id002
      name: conv3d_3
      padding: same
      strides: *id003
      trainable: true
      use_bias: true
    inbound_nodes:
    - - - activation
        - 0
        - 0
        - {}
    name: conv3d_3
  - class_name: Conv3D
    config:
      activation: linear
      activity_regularizer: null
      bias_constraint: null
      bias_initializer:
        class_name: Zeros
        config:
          dtype: float32
      bias_regularizer: null
      data_format: channels_last
      dilation_rate: *id001
      dtype: float32
      filters: 32
      kernel_constraint: null
      kernel_initializer:
        class_name: GlorotUniform
        config:
          dtype: float32
          seed: null
      kernel_regularizer: null
      kernel_size: *id002
      name: conv3d_5
      padding: same
      strides: *id003
      trainable: true
      use_bias: true
    inbound_nodes:
    - - - activation
        - 0
        - 0
        - {}
    name: conv3d_5
  - class_name: Conv3D
    config:
      activation: linear
      activity_regularizer: null
      bias_constraint: null
      bias_initializer:
        class_name: Zeros
        config:
          dtype: float32
      bias_regularizer: null
      data_format: channels_last
      dilation_rate: *id001
      dtype: float32
      filters: 32
      kernel_constraint: null
      kernel_initializer:
        class_name: GlorotUniform
        config:
          dtype: float32
          seed: null
      kernel_regularizer: null
      kernel_size: *id002
      name: conv3d_7
      padding: same
      strides: *id003
      trainable: true
      use_bias: true
    inbound_nodes:
    - - - activation
        - 0
        - 0
        - {}
    name: conv3d_7
  - class_name: Conv3D
    config:
      activation: linear
      activity_regularizer: null
      bias_constraint: null
      bias_initializer:
        class_name: Zeros
        config:
          dtype: float32
      bias_regularizer: null
      data_format: channels_last
      dilation_rate: *id001
      dtype: float32
      filters: 32
      kernel_constraint: null
      kernel_initializer:
        class_name: GlorotUniform
        config:
          dtype: float32
          seed: null
      kernel_regularizer: null
      kernel_size: *id002
      name: conv3d_9
      padding: same
      strides: *id003
      trainable: true
      use_bias: true
    inbound_nodes:
    - - - activation
        - 0
        - 0
        - {}
    name: conv3d_9
  - class_name: Conv3D
    config:
      activation: linear
      activity_regularizer: null
      bias_constraint: null
      bias_initializer:
        class_name: Zeros
        config:
          dtype: float32
      bias_regularizer: null
      data_format: channels_last
      dilation_rate: *id001
      dtype: float32
      filters: 32
      kernel_constraint: null
      kernel_initializer:
        class_name: GlorotUniform
        config:
          dtype: float32
          seed: null
      kernel_regularizer: null
      kernel_size: *id002
      name: conv3d_11
      padding: same
      strides: *id003
      trainable: true
      use_bias: true
    inbound_nodes:
    - - - activation
        - 0
        - 0
        - {}
    name: conv3d_11
  - class_name: Conv3D
    config:
      activation: linear
      activity_regularizer: null
      bias_constraint: null
      bias_initializer:
        class_name: Zeros
        config:
          dtype: float32
      bias_regularizer: null
      data_format: channels_last
      dilation_rate: *id001
      dtype: float32
      filters: 32
      kernel_constraint: null
      kernel_initializer:
        class_name: GlorotUniform
        config:
          dtype: float32
          seed: null
      kernel_regularizer: null
      kernel_size: *id002
      name: conv3d_13
      padding: same
      strides: *id003
      trainable: true
      use_bias: true
    inbound_nodes:
    - - - activation
        - 0
        - 0
        - {}
    name: conv3d_13
  - class_name: Conv3D
    config:
      activation: linear
      activity_regularizer: null
      bias_constraint: null
      bias_initializer:
        class_name: Zeros
        config:
          dtype: float32
      bias_regularizer: null
      data_format: channels_last
      dilation_rate: *id001
      dtype: float32
      filters: 32
      kernel_constraint: null
      kernel_initializer:
        class_name: GlorotUniform
        config:
          dtype: float32
          seed: null
      kernel_regularizer: null
      kernel_size: *id002
      name: conv3d_15
      padding: same
      strides: *id003
      trainable: true
      use_bias: true
    inbound_nodes:
    - - - activation
        - 0
        - 0
        - {}
    name: conv3d_15
  - class_name: BatchNormalizationV1
    config:
      axis:
      - 4
      beta_constraint: null
      beta_initializer:
        class_name: Zeros
        config:
          dtype: float32
      beta_regularizer: null
      center: true
      dtype: float32
      epsilon: 0.001
      gamma_constraint: null
      gamma_initializer:
        class_name: Ones
        config:
          dtype: float32
      gamma_regularizer: null
      momentum: 0.99
      moving_mean_initializer:
        class_name: Zeros
        config:
          dtype: float32
      moving_variance_initializer:
        class_name: Ones
        config:
          dtype: float32
      name: batch_normalization_v1_1
      scale: true
      trainable: true
    inbound_nodes:
    - - - conv3d_1
        - 0
        - 0
        - training: true
    name: batch_normalization_v1_1
  - class_name: BatchNormalizationV1
    config:
      axis:
      - 4
      beta_constraint: null
      beta_initializer:
        class_name: Zeros
        config:
          dtype: float32
      beta_regularizer: null
      center: true
      dtype: float32
      epsilon: 0.001
      gamma_constraint: null
      gamma_initializer:
        class_name: Ones
        config:
          dtype: float32
      gamma_regularizer: null
      momentum: 0.99
      moving_mean_initializer:
        class_name: Zeros
        config:
          dtype: float32
      moving_variance_initializer:
        class_name: Ones
        config:
          dtype: float32
      name: batch_normalization_v1_3
      scale: true
      trainable: true
    inbound_nodes:
    - - - conv3d_3
        - 0
        - 0
        - training: true
    name: batch_normalization_v1_3
  - class_name: BatchNormalizationV1
    config:
      axis:
      - 4
      beta_constraint: null
      beta_initializer:
        class_name: Zeros
        config:
          dtype: float32
      beta_regularizer: null
      center: true
      dtype: float32
      epsilon: 0.001
      gamma_constraint: null
      gamma_initializer:
        class_name: Ones
        config:
          dtype: float32
      gamma_regularizer: null
      momentum: 0.99
      moving_mean_initializer:
        class_name: Zeros
        config:
          dtype: float32
      moving_variance_initializer:
        class_name: Ones
        config:
          dtype: float32
      name: batch_normalization_v1_5
      scale: true
      trainable: true
    inbound_nodes:
    - - - conv3d_5
        - 0
        - 0
        - training: true
    name: batch_normalization_v1_5
  - class_name: BatchNormalizationV1
    config:
      axis:
      - 4
      beta_constraint: null
      beta_initializer:
        class_name: Zeros
        config:
          dtype: float32
      beta_regularizer: null
      center: true
      dtype: float32
      epsilon: 0.001
      gamma_constraint: null
      gamma_initializer:
        class_name: Ones
        config:
          dtype: float32
      gamma_regularizer: null
      momentum: 0.99
      moving_mean_initializer:
        class_name: Zeros
        config:
          dtype: float32
      moving_variance_initializer:
        class_name: Ones
        config:
          dtype: float32
      name: batch_normalization_v1_7
      scale: true
      trainable: true
    inbound_nodes:
    - - - conv3d_7
        - 0
        - 0
        - training: true
    name: batch_normalization_v1_7
  - class_name: BatchNormalizationV1
    config:
      axis:
      - 4
      beta_constraint: null
      beta_initializer:
        class_name: Zeros
        config:
          dtype: float32
      beta_regularizer: null
      center: true
      dtype: float32
      epsilon: 0.001
      gamma_constraint: null
      gamma_initializer:
        class_name: Ones
        config:
          dtype: float32
      gamma_regularizer: null
      momentum: 0.99
      moving_mean_initializer:
        class_name: Zeros
        config:
          dtype: float32
      moving_variance_initializer:
        class_name: Ones
        config:
          dtype: float32
      name: batch_normalization_v1_9
      scale: true
      trainable: true
    inbound_nodes:
    - - - conv3d_9
        - 0
        - 0
        - training: true
    name: batch_normalization_v1_9
  - class_name: BatchNormalizationV1
    config:
      axis:
      - 4
      beta_constraint: null
      beta_initializer:
        class_name: Zeros
        config:
          dtype: float32
      beta_regularizer: null
      center: true
      dtype: float32
      epsilon: 0.001
      gamma_constraint: null
      gamma_initializer:
        class_name: Ones
        config:
          dtype: float32
      gamma_regularizer: null
      momentum: 0.99
      moving_mean_initializer:
        class_name: Zeros
        config:
          dtype: float32
      moving_variance_initializer:
        class_name: Ones
        config:
          dtype: float32
      name: batch_normalization_v1_11
      scale: true
      trainable: true
    inbound_nodes:
    - - - conv3d_11
        - 0
        - 0
        - training: true
    name: batch_normalization_v1_11
  - class_name: BatchNormalizationV1
    config:
      axis:
      - 4
      beta_constraint: null
      beta_initializer:
        class_name: Zeros
        config:
          dtype: float32
      beta_regularizer: null
      center: true
      dtype: float32
      epsilon: 0.001
      gamma_constraint: null
      gamma_initializer:
        class_name: Ones
        config:
          dtype: float32
      gamma_regularizer: null
      momentum: 0.99
      moving_mean_initializer:
        class_name: Zeros
        config:
          dtype: float32
      moving_variance_initializer:
        class_name: Ones
        config:
          dtype: float32
      name: batch_normalization_v1_13
      scale: true
      trainable: true
    inbound_nodes:
    - - - conv3d_13
        - 0
        - 0
        - training: true
    name: batch_normalization_v1_13
  - class_name: BatchNormalizationV1
    config:
      axis:
      - 4
      beta_constraint: null
      beta_initializer:
        class_name: Zeros
        config:
          dtype: float32
      beta_regularizer: null
      center: true
      dtype: float32
      epsilon: 0.001
      gamma_constraint: null
      gamma_initializer:
        class_name: Ones
        config:
          dtype: float32
      gamma_regularizer: null
      momentum: 0.99
      moving_mean_initializer:
        class_name: Zeros
        config:
          dtype: float32
      moving_variance_initializer:
        class_name: Ones
        config:
          dtype: float32
      name: batch_normalization_v1_15
      scale: true
      trainable: true
    inbound_nodes:
    - - - conv3d_15
        - 0
        - 0
        - training: true
    name: batch_normalization_v1_15
  - class_name: Activation
    config:
      activation: relu
      dtype: float32
      name: activation_1
      trainable: true
    inbound_nodes:
    - - - batch_normalization_v1_1
        - 0
        - 0
        - {}
    name: activation_1
  - class_name: Activation
    config:
      activation: relu
      dtype: float32
      name: activation_3
      trainable: true
    inbound_nodes:
    - - - batch_normalization_v1_3
        - 0
        - 0
        - {}
    name: activation_3
  - class_name: Activation
    config:
      activation: relu
      dtype: float32
      name: activation_5
      trainable: true
    inbound_nodes:
    - - - batch_normalization_v1_5
        - 0
        - 0
        - {}
    name: activation_5
  - class_name: Activation
    config:
      activation: relu
      dtype: float32
      name: activation_7
      trainable: true
    inbound_nodes:
    - - - batch_normalization_v1_7
        - 0
        - 0
        - {}
    name: activation_7
  - class_name: Activation
    config:
      activation: relu
      dtype: float32
      name: activation_9
      trainable: true
    inbound_nodes:
    - - - batch_normalization_v1_9
        - 0
        - 0
        - {}
    name: activation_9
  - class_name: Activation
    config:
      activation: relu
      dtype: float32
      name: activation_11
      trainable: true
    inbound_nodes:
    - - - batch_normalization_v1_11
        - 0
        - 0
        - {}
    name: activation_11
  - class_name: Activation
    config:
      activation: relu
      dtype: float32
      name: activation_13
      trainable: true
    inbound_nodes:
    - - - batch_normalization_v1_13
        - 0
        - 0
        - {}
    name: activation_13
  - class_name: Activation
    config:
      activation: relu
      dtype: float32
      name: activation_15
      trainable: true
    inbound_nodes:
    - - - batch_normalization_v1_15
        - 0
        - 0
        - {}
    name: activation_15
  - class_name: Conv3D
    config:
      activation: linear
      activity_regularizer: null
      bias_constraint: null
      bias_initializer:
        class_name: Zeros
        config:
          dtype: float32
      bias_regularizer: null
      data_format: channels_last
      dilation_rate: *id001
      dtype: float32
      filters: 32
      kernel_constraint: null
      kernel_initializer:
        class_name: GlorotUniform
        config:
          dtype: float32
          seed: null
      kernel_regularizer: null
      kernel_size: &id004 !!python/tuple
      - 3
      - 3
      - 3
      name: conv3d_2
      padding: same
      strides: &id005 !!python/tuple
      - 1
      - 1
      - 1
      trainable: true
      use_bias: true
    inbound_nodes:
    - - - activation_1
        - 0
        - 0
        - {}
    name: conv3d_2
  - class_name: Conv3D
    config:
      activation: linear
      activity_regularizer: null
      bias_constraint: null
      bias_initializer:
        class_name: Zeros
        config:
          dtype: float32
      bias_regularizer: null
      data_format: channels_last
      dilation_rate: *id001
      dtype: float32
      filters: 32
      kernel_constraint: null
      kernel_initializer:
        class_name: GlorotUniform
        config:
          dtype: float32
          seed: null
      kernel_regularizer: null
      kernel_size: *id004
      name: conv3d_4
      padding: same
      strides: *id005
      trainable: true
      use_bias: true
    inbound_nodes:
    - - - activation_3
        - 0
        - 0
        - {}
    name: conv3d_4
  - class_name: Conv3D
    config:
      activation: linear
      activity_regularizer: null
      bias_constraint: null
      bias_initializer:
        class_name: Zeros
        config:
          dtype: float32
      bias_regularizer: null
      data_format: channels_last
      dilation_rate: *id001
      dtype: float32
      filters: 32
      kernel_constraint: null
      kernel_initializer:
        class_name: GlorotUniform
        config:
          dtype: float32
          seed: null
      kernel_regularizer: null
      kernel_size: *id004
      name: conv3d_6
      padding: same
      strides: *id005
      trainable: true
      use_bias: true
    inbound_nodes:
    - - - activation_5
        - 0
        - 0
        - {}
    name: conv3d_6
  - class_name: Conv3D
    config:
      activation: linear
      activity_regularizer: null
      bias_constraint: null
      bias_initializer:
        class_name: Zeros
        config:
          dtype: float32
      bias_regularizer: null
      data_format: channels_last
      dilation_rate: *id001
      dtype: float32
      filters: 32
      kernel_constraint: null
      kernel_initializer:
        class_name: GlorotUniform
        config:
          dtype: float32
          seed: null
      kernel_regularizer: null
      kernel_size: *id004
      name: conv3d_8
      padding: same
      strides: *id005
      trainable: true
      use_bias: true
    inbound_nodes:
    - - - activation_7
        - 0
        - 0
        - {}
    name: conv3d_8
  - class_name: Conv3D
    config:
      activation: linear
      activity_regularizer: null
      bias_constraint: null
      bias_initializer:
        class_name: Zeros
        config:
          dtype: float32
      bias_regularizer: null
      data_format: channels_last
      dilation_rate: *id001
      dtype: float32
      filters: 32
      kernel_constraint: null
      kernel_initializer:
        class_name: GlorotUniform
        config:
          dtype: float32
          seed: null
      kernel_regularizer: null
      kernel_size: *id004
      name: conv3d_10
      padding: same
      strides: *id005
      trainable: true
      use_bias: true
    inbound_nodes:
    - - - activation_9
        - 0
        - 0
        - {}
    name: conv3d_10
  - class_name: Conv3D
    config:
      activation: linear
      activity_regularizer: null
      bias_constraint: null
      bias_initializer:
        class_name: Zeros
        config:
          dtype: float32
      bias_regularizer: null
      data_format: channels_last
      dilation_rate: *id001
      dtype: float32
      filters: 32
      kernel_constraint: null
      kernel_initializer:
        class_name: GlorotUniform
        config:
          dtype: float32
          seed: null
      kernel_regularizer: null
      kernel_size: *id004
      name: conv3d_12
      padding: same
      strides: *id005
      trainable: true
      use_bias: true
    inbound_nodes:
    - - - activation_11
        - 0
        - 0
        - {}
    name: conv3d_12
  - class_name: Conv3D
    config:
      activation: linear
      activity_regularizer: null
      bias_constraint: null
      bias_initializer:
        class_name: Zeros
        config:
          dtype: float32
      bias_regularizer: null
      data_format: channels_last
      dilation_rate: *id001
      dtype: float32
      filters: 32
      kernel_constraint: null
      kernel_initializer:
        class_name: GlorotUniform
        config:
          dtype: float32
          seed: null
      kernel_regularizer: null
      kernel_size: *id004
      name: conv3d_14
      padding: same
      strides: *id005
      trainable: true
      use_bias: true
    inbound_nodes:
    - - - activation_13
        - 0
        - 0
        - {}
    name: conv3d_14
  - class_name: Conv3D
    config:
      activation: linear
      activity_regularizer: null
      bias_constraint: null
      bias_initializer:
        class_name: Zeros
        config:
          dtype: float32
      bias_regularizer: null
      data_format: channels_last
      dilation_rate: *id001
      dtype: float32
      filters: 32
      kernel_constraint: null
      kernel_initializer:
        class_name: GlorotUniform
        config:
          dtype: float32
          seed: null
      kernel_regularizer: null
      kernel_size: *id004
      name: conv3d_16
      padding: same
      strides: *id005
      trainable: true
      use_bias: true
    inbound_nodes:
    - - - activation_15
        - 0
        - 0
        - {}
    name: conv3d_16
  - class_name: BatchNormalizationV1
    config:
      axis:
      - 4
      beta_constraint: null
      beta_initializer:
        class_name: Zeros
        config:
          dtype: float32
      beta_regularizer: null
      center: true
      dtype: float32
      epsilon: 0.001
      gamma_constraint: null
      gamma_initializer:
        class_name: Ones
        config:
          dtype: float32
      gamma_regularizer: null
      momentum: 0.99
      moving_mean_initializer:
        class_name: Zeros
        config:
          dtype: float32
      moving_variance_initializer:
        class_name: Ones
        config:
          dtype: float32
      name: batch_normalization_v1_2
      scale: true
      trainable: true
    inbound_nodes:
    - - - conv3d_2
        - 0
        - 0
        - training: true
    name: batch_normalization_v1_2
  - class_name: BatchNormalizationV1
    config:
      axis:
      - 4
      beta_constraint: null
      beta_initializer:
        class_name: Zeros
        config:
          dtype: float32
      beta_regularizer: null
      center: true
      dtype: float32
      epsilon: 0.001
      gamma_constraint: null
      gamma_initializer:
        class_name: Ones
        config:
          dtype: float32
      gamma_regularizer: null
      momentum: 0.99
      moving_mean_initializer:
        class_name: Zeros
        config:
          dtype: float32
      moving_variance_initializer:
        class_name: Ones
        config:
          dtype: float32
      name: batch_normalization_v1_4
      scale: true
      trainable: true
    inbound_nodes:
    - - - conv3d_4
        - 0
        - 0
        - training: true
    name: batch_normalization_v1_4
  - class_name: BatchNormalizationV1
    config:
      axis:
      - 4
      beta_constraint: null
      beta_initializer:
        class_name: Zeros
        config:
          dtype: float32
      beta_regularizer: null
      center: true
      dtype: float32
      epsilon: 0.001
      gamma_constraint: null
      gamma_initializer:
        class_name: Ones
        config:
          dtype: float32
      gamma_regularizer: null
      momentum: 0.99
      moving_mean_initializer:
        class_name: Zeros
        config:
          dtype: float32
      moving_variance_initializer:
        class_name: Ones
        config:
          dtype: float32
      name: batch_normalization_v1_6
      scale: true
      trainable: true
    inbound_nodes:
    - - - conv3d_6
        - 0
        - 0
        - training: true
    name: batch_normalization_v1_6
  - class_name: BatchNormalizationV1
    config:
      axis:
      - 4
      beta_constraint: null
      beta_initializer:
        class_name: Zeros
        config:
          dtype: float32
      beta_regularizer: null
      center: true
      dtype: float32
      epsilon: 0.001
      gamma_constraint: null
      gamma_initializer:
        class_name: Ones
        config:
          dtype: float32
      gamma_regularizer: null
      momentum: 0.99
      moving_mean_initializer:
        class_name: Zeros
        config:
          dtype: float32
      moving_variance_initializer:
        class_name: Ones
        config:
          dtype: float32
      name: batch_normalization_v1_8
      scale: true
      trainable: true
    inbound_nodes:
    - - - conv3d_8
        - 0
        - 0
        - training: true
    name: batch_normalization_v1_8
  - class_name: BatchNormalizationV1
    config:
      axis:
      - 4
      beta_constraint: null
      beta_initializer:
        class_name: Zeros
        config:
          dtype: float32
      beta_regularizer: null
      center: true
      dtype: float32
      epsilon: 0.001
      gamma_constraint: null
      gamma_initializer:
        class_name: Ones
        config:
          dtype: float32
      gamma_regularizer: null
      momentum: 0.99
      moving_mean_initializer:
        class_name: Zeros
        config:
          dtype: float32
      moving_variance_initializer:
        class_name: Ones
        config:
          dtype: float32
      name: batch_normalization_v1_10
      scale: true
      trainable: true
    inbound_nodes:
    - - - conv3d_10
        - 0
        - 0
        - training: true
    name: batch_normalization_v1_10
  - class_name: BatchNormalizationV1
    config:
      axis:
      - 4
      beta_constraint: null
      beta_initializer:
        class_name: Zeros
        config:
          dtype: float32
      beta_regularizer: null
      center: true
      dtype: float32
      epsilon: 0.001
      gamma_constraint: null
      gamma_initializer:
        class_name: Ones
        config:
          dtype: float32
      gamma_regularizer: null
      momentum: 0.99
      moving_mean_initializer:
        class_name: Zeros
        config:
          dtype: float32
      moving_variance_initializer:
        class_name: Ones
        config:
          dtype: float32
      name: batch_normalization_v1_12
      scale: true
      trainable: true
    inbound_nodes:
    - - - conv3d_12
        - 0
        - 0
        - training: true
    name: batch_normalization_v1_12
  - class_name: BatchNormalizationV1
    config:
      axis:
      - 4
      beta_constraint: null
      beta_initializer:
        class_name: Zeros
        config:
          dtype: float32
      beta_regularizer: null
      center: true
      dtype: float32
      epsilon: 0.001
      gamma_constraint: null
      gamma_initializer:
        class_name: Ones
        config:
          dtype: float32
      gamma_regularizer: null
      momentum: 0.99
      moving_mean_initializer:
        class_name: Zeros
        config:
          dtype: float32
      moving_variance_initializer:
        class_name: Ones
        config:
          dtype: float32
      name: batch_normalization_v1_14
      scale: true
      trainable: true
    inbound_nodes:
    - - - conv3d_14
        - 0
        - 0
        - training: true
    name: batch_normalization_v1_14
  - class_name: BatchNormalizationV1
    config:
      axis:
      - 4
      beta_constraint: null
      beta_initializer:
        class_name: Zeros
        config:
          dtype: float32
      beta_regularizer: null
      center: true
      dtype: float32
      epsilon: 0.001
      gamma_constraint: null
      gamma_initializer:
        class_name: Ones
        config:
          dtype: float32
      gamma_regularizer: null
      momentum: 0.99
      moving_mean_initializer:
        class_name: Zeros
        config:
          dtype: float32
      moving_variance_initializer:
        class_name: Ones
        config:
          dtype: float32
      name: batch_normalization_v1_16
      scale: true
      trainable: true
    inbound_nodes:
    - - - conv3d_16
        - 0
        - 0
        - training: true
    name: batch_normalization_v1_16
  - class_name: Activation
    config:
      activation: relu
      dtype: float32
      name: activation_2
      trainable: true
    inbound_nodes:
    - - - batch_normalization_v1_2
        - 0
        - 0
        - {}
    name: activation_2
  - class_name: Activation
    config:
      activation: relu
      dtype: float32
      name: activation_4
      trainable: true
    inbound_nodes:
    - - - batch_normalization_v1_4
        - 0
        - 0
        - {}
    name: activation_4
  - class_name: Activation
    config:
      activation: relu
      dtype: float32
      name: activation_6
      trainable: true
    inbound_nodes:
    - - - batch_normalization_v1_6
        - 0
        - 0
        - {}
    name: activation_6
  - class_name: Activation
    config:
      activation: relu
      dtype: float32
      name: activation_8
      trainable: true
    inbound_nodes:
    - - - batch_normalization_v1_8
        - 0
        - 0
        - {}
    name: activation_8
  - class_name: Activation
    config:
      activation: relu
      dtype: float32
      name: activation_10
      trainable: true
    inbound_nodes:
    - - - batch_normalization_v1_10
        - 0
        - 0
        - {}
    name: activation_10
  - class_name: Activation
    config:
      activation: relu
      dtype: float32
      name: activation_12
      trainable: true
    inbound_nodes:
    - - - batch_normalization_v1_12
        - 0
        - 0
        - {}
    name: activation_12
  - class_name: Activation
    config:
      activation: relu
      dtype: float32
      name: activation_14
      trainable: true
    inbound_nodes:
    - - - batch_normalization_v1_14
        - 0
        - 0
        - {}
    name: activation_14
  - class_name: Activation
    config:
      activation: relu
      dtype: float32
      name: activation_16
      trainable: true
    inbound_nodes:
    - - - batch_normalization_v1_16
        - 0
        - 0
        - {}
    name: activation_16
  - class_name: Concatenate
    config:
      axis: -1
      dtype: float32
      name: concatenate
      trainable: true
    inbound_nodes:
    - - - activation_2
        - 0
        - 0
        - &id006 {}
      - - activation_4
        - 0
        - 0
        - *id006
      - - activation_6
        - 0
        - 0
        - *id006
      - - activation_8
        - 0
        - 0
        - *id006
      - - activation_10
        - 0
        - 0
        - *id006
      - - activation_12
        - 0
        - 0
        - *id006
      - - activation_14
        - 0
        - 0
        - *id006
      - - activation_16
        - 0
        - 0
        - *id006
    name: concatenate
  - class_name: Conv3D
    config:
      activation: linear
      activity_regularizer: null
      bias_constraint: null
      bias_initializer:
        class_name: Zeros
        config:
          dtype: float32
      bias_regularizer: null
      data_format: channels_last
      dilation_rate: *id001
      dtype: float32
      filters: 32
      kernel_constraint: null
      kernel_initializer:
        class_name: GlorotUniform
        config:
          dtype: float32
          seed: null
      kernel_regularizer: null
      kernel_size: &id010 !!python/tuple
      - 1
      - 1
      - 1
      name: conv3d_17
      padding: same
      strides: &id011 !!python/tuple
      - 1
      - 1
      - 1
      trainable: true
      use_bias: true
    inbound_nodes:
    - - - concatenate
        - 0
        - 0
        - {}
    name: conv3d_17
  - class_name: BatchNormalizationV1
    config:
      axis:
      - 4
      beta_constraint: null
      beta_initializer:
        class_name: Zeros
        config:
          dtype: float32
      beta_regularizer: null
      center: true
      dtype: float32
      epsilon: 0.001
      gamma_constraint: null
      gamma_initializer:
        class_name: Ones
        config:
          dtype: float32
      gamma_regularizer: null
      momentum: 0.99
      moving_mean_initializer:
        class_name: Zeros
        config:
          dtype: float32
      moving_variance_initializer:
        class_name: Ones
        config:
          dtype: float32
      name: batch_normalization_v1_17
      scale: true
      trainable: true
    inbound_nodes:
    - - - conv3d_17
        - 0
        - 0
        - training: true
    name: batch_normalization_v1_17
  - class_name: GlobalAveragePooling3D
    config:
      data_format: channels_last
      dtype: float32
      name: global_average_pooling3d
      trainable: true
    inbound_nodes:
    - - - batch_normalization_v1_17
        - 0
        - 0
        - {}
    name: global_average_pooling3d
  - class_name: Dense
    config:
      activation: linear
      activity_regularizer: null
      bias_constraint: null
      bias_initializer:
        class_name: Zeros
        config:
          dtype: float32
      bias_regularizer: null
      dtype: float32
      kernel_constraint: null
      kernel_initializer:
        class_name: GlorotUniform
        config:
          dtype: float32
          seed: null
      kernel_regularizer: null
      name: dense
      trainable: true
      units: 8
      use_bias: true
    inbound_nodes:
    - - - global_average_pooling3d
        - 0
        - 0
        - {}
    name: dense
  - class_name: Activation
    config:
      activation: relu
      dtype: float32
      name: activation_17
      trainable: true
    inbound_nodes:
    - - - dense
        - 0
        - 0
        - {}
    name: activation_17
  - class_name: Dense
    config:
      activation: linear
      activity_regularizer: null
      bias_constraint: null
      bias_initializer:
        class_name: Zeros
        config:
          dtype: float32
      bias_regularizer: null
      dtype: float32
      kernel_constraint: null
      kernel_initializer:
        class_name: GlorotUniform
        config:
          dtype: float32
          seed: null
      kernel_regularizer: null
      name: dense_1
      trainable: true
      units: 32
      use_bias: true
    inbound_nodes:
    - - - activation_17
        - 0
        - 0
        - {}
    name: dense_1
  - class_name: Activation
    config:
      activation: sigmoid
      dtype: float32
      name: activation_18
      trainable: true
    inbound_nodes:
    - - - dense_1
        - 0
        - 0
        - {}
    name: activation_18
  - class_name: Reshape
    config:
      dtype: float32
      name: reshape
      target_shape: !!python/tuple
      - 1
      - 1
      - 1
      - 32
      trainable: true
    inbound_nodes:
    - - - activation_18
        - 0
        - 0
        - {}
    name: reshape
  - class_name: Multiply
    config:
      dtype: float32
      name: multiply
      trainable: true
    inbound_nodes:
    - - - batch_normalization_v1_17
        - 0
        - 0
        - &id007 {}
      - - reshape
        - 0
        - 0
        - *id007
    name: multiply
  - class_name: Add
    config:
      dtype: float32
      name: add
      trainable: true
    inbound_nodes:
    - - - multiply
        - 0
        - 0
        - &id008 {}
      - - activation
        - 0
        - 0
        - *id008
    name: add
  - class_name: Activation
    config:
      activation: relu
      dtype: float32
      name: activation_19
      trainable: true
    inbound_nodes:
    - - - add
        - 0
        - 0
        - {}
    name: activation_19
  - class_name: Conv3D
    config:
      activation: linear
      activity_regularizer: null
      bias_constraint: null
      bias_initializer:
        class_name: Zeros
        config:
          dtype: float32
      bias_regularizer: null
      data_format: channels_last
      dilation_rate: *id001
      dtype: float32
      filters: 32
      kernel_constraint: null
      kernel_initializer:
        class_name: GlorotUniform
        config:
          dtype: float32
          seed: null
      kernel_regularizer: null
      kernel_size: *id002
      name: conv3d_18
      padding: same
      strides: *id003
      trainable: true
      use_bias: true
    inbound_nodes:
    - - - activation_19
        - 0
        - 0
        - {}
    name: conv3d_18
  - class_name: Conv3D
    config:
      activation: linear
      activity_regularizer: null
      bias_constraint: null
      bias_initializer:
        class_name: Zeros
        config:
          dtype: float32
      bias_regularizer: null
      data_format: channels_last
      dilation_rate: *id001
      dtype: float32
      filters: 32
      kernel_constraint: null
      kernel_initializer:
        class_name: GlorotUniform
        config:
          dtype: float32
          seed: null
      kernel_regularizer: null
      kernel_size: *id002
      name: conv3d_20
      padding: same
      strides: *id003
      trainable: true
      use_bias: true
    inbound_nodes:
    - - - activation_19
        - 0
        - 0
        - {}
    name: conv3d_20
  - class_name: Conv3D
    config:
      activation: linear
      activity_regularizer: null
      bias_constraint: null
      bias_initializer:
        class_name: Zeros
        config:
          dtype: float32
      bias_regularizer: null
      data_format: channels_last
      dilation_rate: *id001
      dtype: float32
      filters: 32
      kernel_constraint: null
      kernel_initializer:
        class_name: GlorotUniform
        config:
          dtype: float32
          seed: null
      kernel_regularizer: null
      kernel_size: *id002
      name: conv3d_22
      padding: same
      strides: *id003
      trainable: true
      use_bias: true
    inbound_nodes:
    - - - activation_19
        - 0
        - 0
        - {}
    name: conv3d_22
  - class_name: Conv3D
    config:
      activation: linear
      activity_regularizer: null
      bias_constraint: null
      bias_initializer:
        class_name: Zeros
        config:
          dtype: float32
      bias_regularizer: null
      data_format: channels_last
      dilation_rate: *id001
      dtype: float32
      filters: 32
      kernel_constraint: null
      kernel_initializer:
        class_name: GlorotUniform
        config:
          dtype: float32
          seed: null
      kernel_regularizer: null
      kernel_size: *id002
      name: conv3d_24
      padding: same
      strides: *id003
      trainable: true
      use_bias: true
    inbound_nodes:
    - - - activation_19
        - 0
        - 0
        - {}
    name: conv3d_24
  - class_name: Conv3D
    config:
      activation: linear
      activity_regularizer: null
      bias_constraint: null
      bias_initializer:
        class_name: Zeros
        config:
          dtype: float32
      bias_regularizer: null
      data_format: channels_last
      dilation_rate: *id001
      dtype: float32
      filters: 32
      kernel_constraint: null
      kernel_initializer:
        class_name: GlorotUniform
        config:
          dtype: float32
          seed: null
      kernel_regularizer: null
      kernel_size: *id002
      name: conv3d_26
      padding: same
      strides: *id003
      trainable: true
      use_bias: true
    inbound_nodes:
    - - - activation_19
        - 0
        - 0
        - {}
    name: conv3d_26
  - class_name: Conv3D
    config:
      activation: linear
      activity_regularizer: null
      bias_constraint: null
      bias_initializer:
        class_name: Zeros
        config:
          dtype: float32
      bias_regularizer: null
      data_format: channels_last
      dilation_rate: *id001
      dtype: float32
      filters: 32
      kernel_constraint: null
      kernel_initializer:
        class_name: GlorotUniform
        config:
          dtype: float32
          seed: null
      kernel_regularizer: null
      kernel_size: *id002
      name: conv3d_28
      padding: same
      strides: *id003
      trainable: true
      use_bias: true
    inbound_nodes:
    - - - activation_19
        - 0
        - 0
        - {}
    name: conv3d_28
  - class_name: Conv3D
    config:
      activation: linear
      activity_regularizer: null
      bias_constraint: null
      bias_initializer:
        class_name: Zeros
        config:
          dtype: float32
      bias_regularizer: null
      data_format: channels_last
      dilation_rate: *id001
      dtype: float32
      filters: 32
      kernel_constraint: null
      kernel_initializer:
        class_name: GlorotUniform
        config:
          dtype: float32
          seed: null
      kernel_regularizer: null
      kernel_size: *id002
      name: conv3d_30
      padding: same
      strides: *id003
      trainable: true
      use_bias: true
    inbound_nodes:
    - - - activation_19
        - 0
        - 0
        - {}
    name: conv3d_30
  - class_name: Conv3D
    config:
      activation: linear
      activity_regularizer: null
      bias_constraint: null
      bias_initializer:
        class_name: Zeros
        config:
          dtype: float32
      bias_regularizer: null
      data_format: channels_last
      dilation_rate: *id001
      dtype: float32
      filters: 32
      kernel_constraint: null
      kernel_initializer:
        class_name: GlorotUniform
        config:
          dtype: float32
          seed: null
      kernel_regularizer: null
      kernel_size: *id002
      name: conv3d_32
      padding: same
      strides: *id003
      trainable: true
      use_bias: true
    inbound_nodes:
    - - - activation_19
        - 0
        - 0
        - {}
    name: conv3d_32
  - class_name: BatchNormalizationV1
    config:
      axis:
      - 4
      beta_constraint: null
      beta_initializer:
        class_name: Zeros
        config:
          dtype: float32
      beta_regularizer: null
      center: true
      dtype: float32
      epsilon: 0.001
      gamma_constraint: null
      gamma_initializer:
        class_name: Ones
        config:
          dtype: float32
      gamma_regularizer: null
      momentum: 0.99
      moving_mean_initializer:
        class_name: Zeros
        config:
          dtype: float32
      moving_variance_initializer:
        class_name: Ones
        config:
          dtype: float32
      name: batch_normalization_v1_18
      scale: true
      trainable: true
    inbound_nodes:
    - - - conv3d_18
        - 0
        - 0
        - training: true
    name: batch_normalization_v1_18
  - class_name: BatchNormalizationV1
    config:
      axis:
      - 4
      beta_constraint: null
      beta_initializer:
        class_name: Zeros
        config:
          dtype: float32
      beta_regularizer: null
      center: true
      dtype: float32
      epsilon: 0.001
      gamma_constraint: null
      gamma_initializer:
        class_name: Ones
        config:
          dtype: float32
      gamma_regularizer: null
      momentum: 0.99
      moving_mean_initializer:
        class_name: Zeros
        config:
          dtype: float32
      moving_variance_initializer:
        class_name: Ones
        config:
          dtype: float32
      name: batch_normalization_v1_20
      scale: true
      trainable: true
    inbound_nodes:
    - - - conv3d_20
        - 0
        - 0
        - training: true
    name: batch_normalization_v1_20
  - class_name: BatchNormalizationV1
    config:
      axis:
      - 4
      beta_constraint: null
      beta_initializer:
        class_name: Zeros
        config:
          dtype: float32
      beta_regularizer: null
      center: true
      dtype: float32
      epsilon: 0.001
      gamma_constraint: null
      gamma_initializer:
        class_name: Ones
        config:
          dtype: float32
      gamma_regularizer: null
      momentum: 0.99
      moving_mean_initializer:
        class_name: Zeros
        config:
          dtype: float32
      moving_variance_initializer:
        class_name: Ones
        config:
          dtype: float32
      name: batch_normalization_v1_22
      scale: true
      trainable: true
    inbound_nodes:
    - - - conv3d_22
        - 0
        - 0
        - training: true
    name: batch_normalization_v1_22
  - class_name: BatchNormalizationV1
    config:
      axis:
      - 4
      beta_constraint: null
      beta_initializer:
        class_name: Zeros
        config:
          dtype: float32
      beta_regularizer: null
      center: true
      dtype: float32
      epsilon: 0.001
      gamma_constraint: null
      gamma_initializer:
        class_name: Ones
        config:
          dtype: float32
      gamma_regularizer: null
      momentum: 0.99
      moving_mean_initializer:
        class_name: Zeros
        config:
          dtype: float32
      moving_variance_initializer:
        class_name: Ones
        config:
          dtype: float32
      name: batch_normalization_v1_24
      scale: true
      trainable: true
    inbound_nodes:
    - - - conv3d_24
        - 0
        - 0
        - training: true
    name: batch_normalization_v1_24
  - class_name: BatchNormalizationV1
    config:
      axis:
      - 4
      beta_constraint: null
      beta_initializer:
        class_name: Zeros
        config:
          dtype: float32
      beta_regularizer: null
      center: true
      dtype: float32
      epsilon: 0.001
      gamma_constraint: null
      gamma_initializer:
        class_name: Ones
        config:
          dtype: float32
      gamma_regularizer: null
      momentum: 0.99
      moving_mean_initializer:
        class_name: Zeros
        config:
          dtype: float32
      moving_variance_initializer:
        class_name: Ones
        config:
          dtype: float32
      name: batch_normalization_v1_26
      scale: true
      trainable: true
    inbound_nodes:
    - - - conv3d_26
        - 0
        - 0
        - training: true
    name: batch_normalization_v1_26
  - class_name: BatchNormalizationV1
    config:
      axis:
      - 4
      beta_constraint: null
      beta_initializer:
        class_name: Zeros
        config:
          dtype: float32
      beta_regularizer: null
      center: true
      dtype: float32
      epsilon: 0.001
      gamma_constraint: null
      gamma_initializer:
        class_name: Ones
        config:
          dtype: float32
      gamma_regularizer: null
      momentum: 0.99
      moving_mean_initializer:
        class_name: Zeros
        config:
          dtype: float32
      moving_variance_initializer:
        class_name: Ones
        config:
          dtype: float32
      name: batch_normalization_v1_28
      scale: true
      trainable: true
    inbound_nodes:
    - - - conv3d_28
        - 0
        - 0
        - training: true
    name: batch_normalization_v1_28
  - class_name: BatchNormalizationV1
    config:
      axis:
      - 4
      beta_constraint: null
      beta_initializer:
        class_name: Zeros
        config:
          dtype: float32
      beta_regularizer: null
      center: true
      dtype: float32
      epsilon: 0.001
      gamma_constraint: null
      gamma_initializer:
        class_name: Ones
        config:
          dtype: float32
      gamma_regularizer: null
      momentum: 0.99
      moving_mean_initializer:
        class_name: Zeros
        config:
          dtype: float32
      moving_variance_initializer:
        class_name: Ones
        config:
          dtype: float32
      name: batch_normalization_v1_30
      scale: true
      trainable: true
    inbound_nodes:
    - - - conv3d_30
        - 0
        - 0
        - training: true
    name: batch_normalization_v1_30
  - class_name: BatchNormalizationV1
    config:
      axis:
      - 4
      beta_constraint: null
      beta_initializer:
        class_name: Zeros
        config:
          dtype: float32
      beta_regularizer: null
      center: true
      dtype: float32
      epsilon: 0.001
      gamma_constraint: null
      gamma_initializer:
        class_name: Ones
        config:
          dtype: float32
      gamma_regularizer: null
      momentum: 0.99
      moving_mean_initializer:
        class_name: Zeros
        config:
          dtype: float32
      moving_variance_initializer:
        class_name: Ones
        config:
          dtype: float32
      name: batch_normalization_v1_32
      scale: true
      trainable: true
    inbound_nodes:
    - - - conv3d_32
        - 0
        - 0
        - training: true
    name: batch_normalization_v1_32
  - class_name: Activation
    config:
      activation: relu
      dtype: float32
      name: activation_20
      trainable: true
    inbound_nodes:
    - - - batch_normalization_v1_18
        - 0
        - 0
        - {}
    name: activation_20
  - class_name: Activation
    config:
      activation: relu
      dtype: float32
      name: activation_22
      trainable: true
    inbound_nodes:
    - - - batch_normalization_v1_20
        - 0
        - 0
        - {}
    name: activation_22
  - class_name: Activation
    config:
      activation: relu
      dtype: float32
      name: activation_24
      trainable: true
    inbound_nodes:
    - - - batch_normalization_v1_22
        - 0
        - 0
        - {}
    name: activation_24
  - class_name: Activation
    config:
      activation: relu
      dtype: float32
      name: activation_26
      trainable: true
    inbound_nodes:
    - - - batch_normalization_v1_24
        - 0
        - 0
        - {}
    name: activation_26
  - class_name: Activation
    config:
      activation: relu
      dtype: float32
      name: activation_28
      trainable: true
    inbound_nodes:
    - - - batch_normalization_v1_26
        - 0
        - 0
        - {}
    name: activation_28
  - class_name: Activation
    config:
      activation: relu
      dtype: float32
      name: activation_30
      trainable: true
    inbound_nodes:
    - - - batch_normalization_v1_28
        - 0
        - 0
        - {}
    name: activation_30
  - class_name: Activation
    config:
      activation: relu
      dtype: float32
      name: activation_32
      trainable: true
    inbound_nodes:
    - - - batch_normalization_v1_30
        - 0
        - 0
        - {}
    name: activation_32
  - class_name: Activation
    config:
      activation: relu
      dtype: float32
      name: activation_34
      trainable: true
    inbound_nodes:
    - - - batch_normalization_v1_32
        - 0
        - 0
        - {}
    name: activation_34
  - class_name: Conv3D
    config:
      activation: linear
      activity_regularizer: null
      bias_constraint: null
      bias_initializer:
        class_name: Zeros
        config:
          dtype: float32
      bias_regularizer: null
      data_format: channels_last
      dilation_rate: *id001
      dtype: float32
      filters: 32
      kernel_constraint: null
      kernel_initializer:
        class_name: GlorotUniform
        config:
          dtype: float32
          seed: null
      kernel_regularizer: null
      kernel_size: *id004
      name: conv3d_19
      padding: same
      strides: *id005
      trainable: true
      use_bias: true
    inbound_nodes:
    - - - activation_20
        - 0
        - 0
        - {}
    name: conv3d_19
  - class_name: Conv3D
    config:
      activation: linear
      activity_regularizer: null
      bias_constraint: null
      bias_initializer:
        class_name: Zeros
        config:
          dtype: float32
      bias_regularizer: null
      data_format: channels_last
      dilation_rate: *id001
      dtype: float32
      filters: 32
      kernel_constraint: null
      kernel_initializer:
        class_name: GlorotUniform
        config:
          dtype: float32
          seed: null
      kernel_regularizer: null
      kernel_size: *id004
      name: conv3d_21
      padding: same
      strides: *id005
      trainable: true
      use_bias: true
    inbound_nodes:
    - - - activation_22
        - 0
        - 0
        - {}
    name: conv3d_21
  - class_name: Conv3D
    config:
      activation: linear
      activity_regularizer: null
      bias_constraint: null
      bias_initializer:
        class_name: Zeros
        config:
          dtype: float32
      bias_regularizer: null
      data_format: channels_last
      dilation_rate: *id001
      dtype: float32
      filters: 32
      kernel_constraint: null
      kernel_initializer:
        class_name: GlorotUniform
        config:
          dtype: float32
          seed: null
      kernel_regularizer: null
      kernel_size: *id004
      name: conv3d_23
      padding: same
      strides: *id005
      trainable: true
      use_bias: true
    inbound_nodes:
    - - - activation_24
        - 0
        - 0
        - {}
    name: conv3d_23
  - class_name: Conv3D
    config:
      activation: linear
      activity_regularizer: null
      bias_constraint: null
      bias_initializer:
        class_name: Zeros
        config:
          dtype: float32
      bias_regularizer: null
      data_format: channels_last
      dilation_rate: *id001
      dtype: float32
      filters: 32
      kernel_constraint: null
      kernel_initializer:
        class_name: GlorotUniform
        config:
          dtype: float32
          seed: null
      kernel_regularizer: null
      kernel_size: *id004
      name: conv3d_25
      padding: same
      strides: *id005
      trainable: true
      use_bias: true
    inbound_nodes:
    - - - activation_26
        - 0
        - 0
        - {}
    name: conv3d_25
  - class_name: Conv3D
    config:
      activation: linear
      activity_regularizer: null
      bias_constraint: null
      bias_initializer:
        class_name: Zeros
        config:
          dtype: float32
      bias_regularizer: null
      data_format: channels_last
      dilation_rate: *id001
      dtype: float32
      filters: 32
      kernel_constraint: null
      kernel_initializer:
        class_name: GlorotUniform
        config:
          dtype: float32
          seed: null
      kernel_regularizer: null
      kernel_size: *id004
      name: conv3d_27
      padding: same
      strides: *id005
      trainable: true
      use_bias: true
    inbound_nodes:
    - - - activation_28
        - 0
        - 0
        - {}
    name: conv3d_27
  - class_name: Conv3D
    config:
      activation: linear
      activity_regularizer: null
      bias_constraint: null
      bias_initializer:
        class_name: Zeros
        config:
          dtype: float32
      bias_regularizer: null
      data_format: channels_last
      dilation_rate: *id001
      dtype: float32
      filters: 32
      kernel_constraint: null
      kernel_initializer:
        class_name: GlorotUniform
        config:
          dtype: float32
          seed: null
      kernel_regularizer: null
      kernel_size: *id004
      name: conv3d_29
      padding: same
      strides: *id005
      trainable: true
      use_bias: true
    inbound_nodes:
    - - - activation_30
        - 0
        - 0
        - {}
    name: conv3d_29
  - class_name: Conv3D
    config:
      activation: linear
      activity_regularizer: null
      bias_constraint: null
      bias_initializer:
        class_name: Zeros
        config:
          dtype: float32
      bias_regularizer: null
      data_format: channels_last
      dilation_rate: *id001
      dtype: float32
      filters: 32
      kernel_constraint: null
      kernel_initializer:
        class_name: GlorotUniform
        config:
          dtype: float32
          seed: null
      kernel_regularizer: null
      kernel_size: *id004
      name: conv3d_31
      padding: same
      strides: *id005
      trainable: true
      use_bias: true
    inbound_nodes:
    - - - activation_32
        - 0
        - 0
        - {}
    name: conv3d_31
  - class_name: Conv3D
    config:
      activation: linear
      activity_regularizer: null
      bias_constraint: null
      bias_initializer:
        class_name: Zeros
        config:
          dtype: float32
      bias_regularizer: null
      data_format: channels_last
      dilation_rate: *id001
      dtype: float32
      filters: 32
      kernel_constraint: null
      kernel_initializer:
        class_name: GlorotUniform
        config:
          dtype: float32
          seed: null
      kernel_regularizer: null
      kernel_size: *id004
      name: conv3d_33
      padding: same
      strides: *id005
      trainable: true
      use_bias: true
    inbound_nodes:
    - - - activation_34
        - 0
        - 0
        - {}
    name: conv3d_33
  - class_name: BatchNormalizationV1
    config:
      axis:
      - 4
      beta_constraint: null
      beta_initializer:
        class_name: Zeros
        config:
          dtype: float32
      beta_regularizer: null
      center: true
      dtype: float32
      epsilon: 0.001
      gamma_constraint: null
      gamma_initializer:
        class_name: Ones
        config:
          dtype: float32
      gamma_regularizer: null
      momentum: 0.99
      moving_mean_initializer:
        class_name: Zeros
        config:
          dtype: float32
      moving_variance_initializer:
        class_name: Ones
        config:
          dtype: float32
      name: batch_normalization_v1_19
      scale: true
      trainable: true
    inbound_nodes:
    - - - conv3d_19
        - 0
        - 0
        - training: true
    name: batch_normalization_v1_19
  - class_name: BatchNormalizationV1
    config:
      axis:
      - 4
      beta_constraint: null
      beta_initializer:
        class_name: Zeros
        config:
          dtype: float32
      beta_regularizer: null
      center: true
      dtype: float32
      epsilon: 0.001
      gamma_constraint: null
      gamma_initializer:
        class_name: Ones
        config:
          dtype: float32
      gamma_regularizer: null
      momentum: 0.99
      moving_mean_initializer:
        class_name: Zeros
        config:
          dtype: float32
      moving_variance_initializer:
        class_name: Ones
        config:
          dtype: float32
      name: batch_normalization_v1_21
      scale: true
      trainable: true
    inbound_nodes:
    - - - conv3d_21
        - 0
        - 0
        - training: true
    name: batch_normalization_v1_21
  - class_name: BatchNormalizationV1
    config:
      axis:
      - 4
      beta_constraint: null
      beta_initializer:
        class_name: Zeros
        config:
          dtype: float32
      beta_regularizer: null
      center: true
      dtype: float32
      epsilon: 0.001
      gamma_constraint: null
      gamma_initializer:
        class_name: Ones
        config:
          dtype: float32
      gamma_regularizer: null
      momentum: 0.99
      moving_mean_initializer:
        class_name: Zeros
        config:
          dtype: float32
      moving_variance_initializer:
        class_name: Ones
        config:
          dtype: float32
      name: batch_normalization_v1_23
      scale: true
      trainable: true
    inbound_nodes:
    - - - conv3d_23
        - 0
        - 0
        - training: true
    name: batch_normalization_v1_23
  - class_name: BatchNormalizationV1
    config:
      axis:
      - 4
      beta_constraint: null
      beta_initializer:
        class_name: Zeros
        config:
          dtype: float32
      beta_regularizer: null
      center: true
      dtype: float32
      epsilon: 0.001
      gamma_constraint: null
      gamma_initializer:
        class_name: Ones
        config:
          dtype: float32
      gamma_regularizer: null
      momentum: 0.99
      moving_mean_initializer:
        class_name: Zeros
        config:
          dtype: float32
      moving_variance_initializer:
        class_name: Ones
        config:
          dtype: float32
      name: batch_normalization_v1_25
      scale: true
      trainable: true
    inbound_nodes:
    - - - conv3d_25
        - 0
        - 0
        - training: true
    name: batch_normalization_v1_25
  - class_name: BatchNormalizationV1
    config:
      axis:
      - 4
      beta_constraint: null
      beta_initializer:
        class_name: Zeros
        config:
          dtype: float32
      beta_regularizer: null
      center: true
      dtype: float32
      epsilon: 0.001
      gamma_constraint: null
      gamma_initializer:
        class_name: Ones
        config:
          dtype: float32
      gamma_regularizer: null
      momentum: 0.99
      moving_mean_initializer:
        class_name: Zeros
        config:
          dtype: float32
      moving_variance_initializer:
        class_name: Ones
        config:
          dtype: float32
      name: batch_normalization_v1_27
      scale: true
      trainable: true
    inbound_nodes:
    - - - conv3d_27
        - 0
        - 0
        - training: true
    name: batch_normalization_v1_27
  - class_name: BatchNormalizationV1
    config:
      axis:
      - 4
      beta_constraint: null
      beta_initializer:
        class_name: Zeros
        config:
          dtype: float32
      beta_regularizer: null
      center: true
      dtype: float32
      epsilon: 0.001
      gamma_constraint: null
      gamma_initializer:
        class_name: Ones
        config:
          dtype: float32
      gamma_regularizer: null
      momentum: 0.99
      moving_mean_initializer:
        class_name: Zeros
        config:
          dtype: float32
      moving_variance_initializer:
        class_name: Ones
        config:
          dtype: float32
      name: batch_normalization_v1_29
      scale: true
      trainable: true
    inbound_nodes:
    - - - conv3d_29
        - 0
        - 0
        - training: true
    name: batch_normalization_v1_29
  - class_name: BatchNormalizationV1
    config:
      axis:
      - 4
      beta_constraint: null
      beta_initializer:
        class_name: Zeros
        config:
          dtype: float32
      beta_regularizer: null
      center: true
      dtype: float32
      epsilon: 0.001
      gamma_constraint: null
      gamma_initializer:
        class_name: Ones
        config:
          dtype: float32
      gamma_regularizer: null
      momentum: 0.99
      moving_mean_initializer:
        class_name: Zeros
        config:
          dtype: float32
      moving_variance_initializer:
        class_name: Ones
        config:
          dtype: float32
      name: batch_normalization_v1_31
      scale: true
      trainable: true
    inbound_nodes:
    - - - conv3d_31
        - 0
        - 0
        - training: true
    name: batch_normalization_v1_31
  - class_name: BatchNormalizationV1
    config:
      axis:
      - 4
      beta_constraint: null
      beta_initializer:
        class_name: Zeros
        config:
          dtype: float32
      beta_regularizer: null
      center: true
      dtype: float32
      epsilon: 0.001
      gamma_constraint: null
      gamma_initializer:
        class_name: Ones
        config:
          dtype: float32
      gamma_regularizer: null
      momentum: 0.99
      moving_mean_initializer:
        class_name: Zeros
        config:
          dtype: float32
      moving_variance_initializer:
        class_name: Ones
        config:
          dtype: float32
      name: batch_normalization_v1_33
      scale: true
      trainable: true
    inbound_nodes:
    - - - conv3d_33
        - 0
        - 0
        - training: true
    name: batch_normalization_v1_33
  - class_name: Activation
    config:
      activation: relu
      dtype: float32
      name: activation_21
      trainable: true
    inbound_nodes:
    - - - batch_normalization_v1_19
        - 0
        - 0
        - {}
    name: activation_21
  - class_name: Activation
    config:
      activation: relu
      dtype: float32
      name: activation_23
      trainable: true
    inbound_nodes:
    - - - batch_normalization_v1_21
        - 0
        - 0
        - {}
    name: activation_23
  - class_name: Activation
    config:
      activation: relu
      dtype: float32
      name: activation_25
      trainable: true
    inbound_nodes:
    - - - batch_normalization_v1_23
        - 0
        - 0
        - {}
    name: activation_25
  - class_name: Activation
    config:
      activation: relu
      dtype: float32
      name: activation_27
      trainable: true
    inbound_nodes:
    - - - batch_normalization_v1_25
        - 0
        - 0
        - {}
    name: activation_27
  - class_name: Activation
    config:
      activation: relu
      dtype: float32
      name: activation_29
      trainable: true
    inbound_nodes:
    - - - batch_normalization_v1_27
        - 0
        - 0
        - {}
    name: activation_29
  - class_name: Activation
    config:
      activation: relu
      dtype: float32
      name: activation_31
      trainable: true
    inbound_nodes:
    - - - batch_normalization_v1_29
        - 0
        - 0
        - {}
    name: activation_31
  - class_name: Activation
    config:
      activation: relu
      dtype: float32
      name: activation_33
      trainable: true
    inbound_nodes:
    - - - batch_normalization_v1_31
        - 0
        - 0
        - {}
    name: activation_33
  - class_name: Activation
    config:
      activation: relu
      dtype: float32
      name: activation_35
      trainable: true
    inbound_nodes:
    - - - batch_normalization_v1_33
        - 0
        - 0
        - {}
    name: activation_35
  - class_name: Concatenate
    config:
      axis: -1
      dtype: float32
      name: concatenate_1
      trainable: true
    inbound_nodes:
    - - - activation_21
        - 0
        - 0
        - &id009 {}
      - - activation_23
        - 0
        - 0
        - *id009
      - - activation_25
        - 0
        - 0
        - *id009
      - - activation_27
        - 0
        - 0
        - *id009
      - - activation_29
        - 0
        - 0
        - *id009
      - - activation_31
        - 0
        - 0
        - *id009
      - - activation_33
        - 0
        - 0
        - *id009
      - - activation_35
        - 0
        - 0
        - *id009
    name: concatenate_1
  - class_name: Conv3D
    config:
      activation: linear
      activity_regularizer: null
      bias_constraint: null
      bias_initializer:
        class_name: Zeros
        config:
          dtype: float32
      bias_regularizer: null
      data_format: channels_last
      dilation_rate: *id001
      dtype: float32
      filters: 32
      kernel_constraint: null
      kernel_initializer:
        class_name: GlorotUniform
        config:
          dtype: float32
          seed: null
      kernel_regularizer: null
      kernel_size: *id010
      name: conv3d_34
      padding: same
      strides: *id011
      trainable: true
      use_bias: true
    inbound_nodes:
    - - - concatenate_1
        - 0
        - 0
        - {}
    name: conv3d_34
  - class_name: BatchNormalizationV1
    config:
      axis:
      - 4
      beta_constraint: null
      beta_initializer:
        class_name: Zeros
        config:
          dtype: float32
      beta_regularizer: null
      center: true
      dtype: float32
      epsilon: 0.001
      gamma_constraint: null
      gamma_initializer:
        class_name: Ones
        config:
          dtype: float32
      gamma_regularizer: null
      momentum: 0.99
      moving_mean_initializer:
        class_name: Zeros
        config:
          dtype: float32
      moving_variance_initializer:
        class_name: Ones
        config:
          dtype: float32
      name: batch_normalization_v1_34
      scale: true
      trainable: true
    inbound_nodes:
    - - - conv3d_34
        - 0
        - 0
        - training: true
    name: batch_normalization_v1_34
  - class_name: GlobalAveragePooling3D
    config:
      data_format: channels_last
      dtype: float32
      name: global_average_pooling3d_1
      trainable: true
    inbound_nodes:
    - - - batch_normalization_v1_34
        - 0
        - 0
        - {}
    name: global_average_pooling3d_1
  - class_name: Dense
    config:
      activation: linear
      activity_regularizer: null
      bias_constraint: null
      bias_initializer:
        class_name: Zeros
        config:
          dtype: float32
      bias_regularizer: null
      dtype: float32
      kernel_constraint: null
      kernel_initializer:
        class_name: GlorotUniform
        config:
          dtype: float32
          seed: null
      kernel_regularizer: null
      name: dense_2
      trainable: true
      units: 8
      use_bias: true
    inbound_nodes:
    - - - global_average_pooling3d_1
        - 0
        - 0
        - {}
    name: dense_2
  - class_name: Activation
    config:
      activation: relu
      dtype: float32
      name: activation_36
      trainable: true
    inbound_nodes:
    - - - dense_2
        - 0
        - 0
        - {}
    name: activation_36
  - class_name: Dense
    config:
      activation: linear
      activity_regularizer: null
      bias_constraint: null
      bias_initializer:
        class_name: Zeros
        config:
          dtype: float32
      bias_regularizer: null
      dtype: float32
      kernel_constraint: null
      kernel_initializer:
        class_name: GlorotUniform
        config:
          dtype: float32
          seed: null
      kernel_regularizer: null
      name: dense_3
      trainable: true
      units: 32
      use_bias: true
    inbound_nodes:
    - - - activation_36
        - 0
        - 0
        - {}
    name: dense_3
  - class_name: Activation
    config:
      activation: sigmoid
      dtype: float32
      name: activation_37
      trainable: true
    inbound_nodes:
    - - - dense_3
        - 0
        - 0
        - {}
    name: activation_37
  - class_name: Reshape
    config:
      dtype: float32
      name: reshape_1
      target_shape: !!python/tuple
      - 1
      - 1
      - 1
      - 32
      trainable: true
    inbound_nodes:
    - - - activation_37
        - 0
        - 0
        - {}
    name: reshape_1
  - class_name: Multiply
    config:
      dtype: float32
      name: multiply_1
      trainable: true
    inbound_nodes:
    - - - batch_normalization_v1_34
        - 0
        - 0
        - &id012 {}
      - - reshape_1
        - 0
        - 0
        - *id012
    name: multiply_1
  - class_name: Add
    config:
      dtype: float32
      name: add_1
      trainable: true
    inbound_nodes:
    - - - multiply_1
        - 0
        - 0
        - &id013 {}
      - - activation_19
        - 0
        - 0
        - *id013
    name: add_1
  - class_name: Activation
    config:
      activation: relu
      dtype: float32
      name: activation_38
      trainable: true
    inbound_nodes:
    - - - add_1
        - 0
        - 0
        - {}
    name: activation_38
  - class_name: Conv3D
    config:
      activation: linear
      activity_regularizer: null
      bias_constraint: null
      bias_initializer:
        class_name: Zeros
        config:
          dtype: float32
      bias_regularizer: null
      data_format: channels_last
      dilation_rate: *id001
      dtype: float32
      filters: 32
      kernel_constraint: null
      kernel_initializer:
        class_name: GlorotUniform
        config:
          dtype: float32
          seed: null
      kernel_regularizer: null
      kernel_size: *id002
      name: conv3d_35
      padding: same
      strides: *id003
      trainable: true
      use_bias: true
    inbound_nodes:
    - - - activation_38
        - 0
        - 0
        - {}
    name: conv3d_35
  - class_name: Conv3D
    config:
      activation: linear
      activity_regularizer: null
      bias_constraint: null
      bias_initializer:
        class_name: Zeros
        config:
          dtype: float32
      bias_regularizer: null
      data_format: channels_last
      dilation_rate: *id001
      dtype: float32
      filters: 32
      kernel_constraint: null
      kernel_initializer:
        class_name: GlorotUniform
        config:
          dtype: float32
          seed: null
      kernel_regularizer: null
      kernel_size: *id002
      name: conv3d_37
      padding: same
      strides: *id003
      trainable: true
      use_bias: true
    inbound_nodes:
    - - - activation_38
        - 0
        - 0
        - {}
    name: conv3d_37
  - class_name: Conv3D
    config:
      activation: linear
      activity_regularizer: null
      bias_constraint: null
      bias_initializer:
        class_name: Zeros
        config:
          dtype: float32
      bias_regularizer: null
      data_format: channels_last
      dilation_rate: *id001
      dtype: float32
      filters: 32
      kernel_constraint: null
      kernel_initializer:
        class_name: GlorotUniform
        config:
          dtype: float32
          seed: null
      kernel_regularizer: null
      kernel_size: *id002
      name: conv3d_39
      padding: same
      strides: *id003
      trainable: true
      use_bias: true
    inbound_nodes:
    - - - activation_38
        - 0
        - 0
        - {}
    name: conv3d_39
  - class_name: Conv3D
    config:
      activation: linear
      activity_regularizer: null
      bias_constraint: null
      bias_initializer:
        class_name: Zeros
        config:
          dtype: float32
      bias_regularizer: null
      data_format: channels_last
      dilation_rate: *id001
      dtype: float32
      filters: 32
      kernel_constraint: null
      kernel_initializer:
        class_name: GlorotUniform
        config:
          dtype: float32
          seed: null
      kernel_regularizer: null
      kernel_size: *id002
      name: conv3d_41
      padding: same
      strides: *id003
      trainable: true
      use_bias: true
    inbound_nodes:
    - - - activation_38
        - 0
        - 0
        - {}
    name: conv3d_41
  - class_name: Conv3D
    config:
      activation: linear
      activity_regularizer: null
      bias_constraint: null
      bias_initializer:
        class_name: Zeros
        config:
          dtype: float32
      bias_regularizer: null
      data_format: channels_last
      dilation_rate: *id001
      dtype: float32
      filters: 32
      kernel_constraint: null
      kernel_initializer:
        class_name: GlorotUniform
        config:
          dtype: float32
          seed: null
      kernel_regularizer: null
      kernel_size: *id002
      name: conv3d_43
      padding: same
      strides: *id003
      trainable: true
      use_bias: true
    inbound_nodes:
    - - - activation_38
        - 0
        - 0
        - {}
    name: conv3d_43
  - class_name: Conv3D
    config:
      activation: linear
      activity_regularizer: null
      bias_constraint: null
      bias_initializer:
        class_name: Zeros
        config:
          dtype: float32
      bias_regularizer: null
      data_format: channels_last
      dilation_rate: *id001
      dtype: float32
      filters: 32
      kernel_constraint: null
      kernel_initializer:
        class_name: GlorotUniform
        config:
          dtype: float32
          seed: null
      kernel_regularizer: null
      kernel_size: *id002
      name: conv3d_45
      padding: same
      strides: *id003
      trainable: true
      use_bias: true
    inbound_nodes:
    - - - activation_38
        - 0
        - 0
        - {}
    name: conv3d_45
  - class_name: Conv3D
    config:
      activation: linear
      activity_regularizer: null
      bias_constraint: null
      bias_initializer:
        class_name: Zeros
        config:
          dtype: float32
      bias_regularizer: null
      data_format: channels_last
      dilation_rate: *id001
      dtype: float32
      filters: 32
      kernel_constraint: null
      kernel_initializer:
        class_name: GlorotUniform
        config:
          dtype: float32
          seed: null
      kernel_regularizer: null
      kernel_size: *id002
      name: conv3d_47
      padding: same
      strides: *id003
      trainable: true
      use_bias: true
    inbound_nodes:
    - - - activation_38
        - 0
        - 0
        - {}
    name: conv3d_47
  - class_name: Conv3D
    config:
      activation: linear
      activity_regularizer: null
      bias_constraint: null
      bias_initializer:
        class_name: Zeros
        config:
          dtype: float32
      bias_regularizer: null
      data_format: channels_last
      dilation_rate: *id001
      dtype: float32
      filters: 32
      kernel_constraint: null
      kernel_initializer:
        class_name: GlorotUniform
        config:
          dtype: float32
          seed: null
      kernel_regularizer: null
      kernel_size: *id002
      name: conv3d_49
      padding: same
      strides: *id003
      trainable: true
      use_bias: true
    inbound_nodes:
    - - - activation_38
        - 0
        - 0
        - {}
    name: conv3d_49
  - class_name: BatchNormalizationV1
    config:
      axis:
      - 4
      beta_constraint: null
      beta_initializer:
        class_name: Zeros
        config:
          dtype: float32
      beta_regularizer: null
      center: true
      dtype: float32
      epsilon: 0.001
      gamma_constraint: null
      gamma_initializer:
        class_name: Ones
        config:
          dtype: float32
      gamma_regularizer: null
      momentum: 0.99
      moving_mean_initializer:
        class_name: Zeros
        config:
          dtype: float32
      moving_variance_initializer:
        class_name: Ones
        config:
          dtype: float32
      name: batch_normalization_v1_35
      scale: true
      trainable: true
    inbound_nodes:
    - - - conv3d_35
        - 0
        - 0
        - training: true
    name: batch_normalization_v1_35
  - class_name: BatchNormalizationV1
    config:
      axis:
      - 4
      beta_constraint: null
      beta_initializer:
        class_name: Zeros
        config:
          dtype: float32
      beta_regularizer: null
      center: true
      dtype: float32
      epsilon: 0.001
      gamma_constraint: null
      gamma_initializer:
        class_name: Ones
        config:
          dtype: float32
      gamma_regularizer: null
      momentum: 0.99
      moving_mean_initializer:
        class_name: Zeros
        config:
          dtype: float32
      moving_variance_initializer:
        class_name: Ones
        config:
          dtype: float32
      name: batch_normalization_v1_37
      scale: true
      trainable: true
    inbound_nodes:
    - - - conv3d_37
        - 0
        - 0
        - training: true
    name: batch_normalization_v1_37
  - class_name: BatchNormalizationV1
    config:
      axis:
      - 4
      beta_constraint: null
      beta_initializer:
        class_name: Zeros
        config:
          dtype: float32
      beta_regularizer: null
      center: true
      dtype: float32
      epsilon: 0.001
      gamma_constraint: null
      gamma_initializer:
        class_name: Ones
        config:
          dtype: float32
      gamma_regularizer: null
      momentum: 0.99
      moving_mean_initializer:
        class_name: Zeros
        config:
          dtype: float32
      moving_variance_initializer:
        class_name: Ones
        config:
          dtype: float32
      name: batch_normalization_v1_39
      scale: true
      trainable: true
    inbound_nodes:
    - - - conv3d_39
        - 0
        - 0
        - training: true
    name: batch_normalization_v1_39
  - class_name: BatchNormalizationV1
    config:
      axis:
      - 4
      beta_constraint: null
      beta_initializer:
        class_name: Zeros
        config:
          dtype: float32
      beta_regularizer: null
      center: true
      dtype: float32
      epsilon: 0.001
      gamma_constraint: null
      gamma_initializer:
        class_name: Ones
        config:
          dtype: float32
      gamma_regularizer: null
      momentum: 0.99
      moving_mean_initializer:
        class_name: Zeros
        config:
          dtype: float32
      moving_variance_initializer:
        class_name: Ones
        config:
          dtype: float32
      name: batch_normalization_v1_41
      scale: true
      trainable: true
    inbound_nodes:
    - - - conv3d_41
        - 0
        - 0
        - training: true
    name: batch_normalization_v1_41
  - class_name: BatchNormalizationV1
    config:
      axis:
      - 4
      beta_constraint: null
      beta_initializer:
        class_name: Zeros
        config:
          dtype: float32
      beta_regularizer: null
      center: true
      dtype: float32
      epsilon: 0.001
      gamma_constraint: null
      gamma_initializer:
        class_name: Ones
        config:
          dtype: float32
      gamma_regularizer: null
      momentum: 0.99
      moving_mean_initializer:
        class_name: Zeros
        config:
          dtype: float32
      moving_variance_initializer:
        class_name: Ones
        config:
          dtype: float32
      name: batch_normalization_v1_43
      scale: true
      trainable: true
    inbound_nodes:
    - - - conv3d_43
        - 0
        - 0
        - training: true
    name: batch_normalization_v1_43
  - class_name: BatchNormalizationV1
    config:
      axis:
      - 4
      beta_constraint: null
      beta_initializer:
        class_name: Zeros
        config:
          dtype: float32
      beta_regularizer: null
      center: true
      dtype: float32
      epsilon: 0.001
      gamma_constraint: null
      gamma_initializer:
        class_name: Ones
        config:
          dtype: float32
      gamma_regularizer: null
      momentum: 0.99
      moving_mean_initializer:
        class_name: Zeros
        config:
          dtype: float32
      moving_variance_initializer:
        class_name: Ones
        config:
          dtype: float32
      name: batch_normalization_v1_45
      scale: true
      trainable: true
    inbound_nodes:
    - - - conv3d_45
        - 0
        - 0
        - training: true
    name: batch_normalization_v1_45
  - class_name: BatchNormalizationV1
    config:
      axis:
      - 4
      beta_constraint: null
      beta_initializer:
        class_name: Zeros
        config:
          dtype: float32
      beta_regularizer: null
      center: true
      dtype: float32
      epsilon: 0.001
      gamma_constraint: null
      gamma_initializer:
        class_name: Ones
        config:
          dtype: float32
      gamma_regularizer: null
      momentum: 0.99
      moving_mean_initializer:
        class_name: Zeros
        config:
          dtype: float32
      moving_variance_initializer:
        class_name: Ones
        config:
          dtype: float32
      name: batch_normalization_v1_47
      scale: true
      trainable: true
    inbound_nodes:
    - - - conv3d_47
        - 0
        - 0
        - training: true
    name: batch_normalization_v1_47
  - class_name: BatchNormalizationV1
    config:
      axis:
      - 4
      beta_constraint: null
      beta_initializer:
        class_name: Zeros
        config:
          dtype: float32
      beta_regularizer: null
      center: true
      dtype: float32
      epsilon: 0.001
      gamma_constraint: null
      gamma_initializer:
        class_name: Ones
        config:
          dtype: float32
      gamma_regularizer: null
      momentum: 0.99
      moving_mean_initializer:
        class_name: Zeros
        config:
          dtype: float32
      moving_variance_initializer:
        class_name: Ones
        config:
          dtype: float32
      name: batch_normalization_v1_49
      scale: true
      trainable: true
    inbound_nodes:
    - - - conv3d_49
        - 0
        - 0
        - training: true
    name: batch_normalization_v1_49
  - class_name: Activation
    config:
      activation: relu
      dtype: float32
      name: activation_39
      trainable: true
    inbound_nodes:
    - - - batch_normalization_v1_35
        - 0
        - 0
        - {}
    name: activation_39
  - class_name: Activation
    config:
      activation: relu
      dtype: float32
      name: activation_41
      trainable: true
    inbound_nodes:
    - - - batch_normalization_v1_37
        - 0
        - 0
        - {}
    name: activation_41
  - class_name: Activation
    config:
      activation: relu
      dtype: float32
      name: activation_43
      trainable: true
    inbound_nodes:
    - - - batch_normalization_v1_39
        - 0
        - 0
        - {}
    name: activation_43
  - class_name: Activation
    config:
      activation: relu
      dtype: float32
      name: activation_45
      trainable: true
    inbound_nodes:
    - - - batch_normalization_v1_41
        - 0
        - 0
        - {}
    name: activation_45
  - class_name: Activation
    config:
      activation: relu
      dtype: float32
      name: activation_47
      trainable: true
    inbound_nodes:
    - - - batch_normalization_v1_43
        - 0
        - 0
        - {}
    name: activation_47
  - class_name: Activation
    config:
      activation: relu
      dtype: float32
      name: activation_49
      trainable: true
    inbound_nodes:
    - - - batch_normalization_v1_45
        - 0
        - 0
        - {}
    name: activation_49
  - class_name: Activation
    config:
      activation: relu
      dtype: float32
      name: activation_51
      trainable: true
    inbound_nodes:
    - - - batch_normalization_v1_47
        - 0
        - 0
        - {}
    name: activation_51
  - class_name: Activation
    config:
      activation: relu
      dtype: float32
      name: activation_53
      trainable: true
    inbound_nodes:
    - - - batch_normalization_v1_49
        - 0
        - 0
        - {}
    name: activation_53
  - class_name: Conv3D
    config:
      activation: linear
      activity_regularizer: null
      bias_constraint: null
      bias_initializer:
        class_name: Zeros
        config:
          dtype: float32
      bias_regularizer: null
      data_format: channels_last
      dilation_rate: *id001
      dtype: float32
      filters: 32
      kernel_constraint: null
      kernel_initializer:
        class_name: GlorotUniform
        config:
          dtype: float32
          seed: null
      kernel_regularizer: null
      kernel_size: *id004
      name: conv3d_36
      padding: same
      strides: *id005
      trainable: true
      use_bias: true
    inbound_nodes:
    - - - activation_39
        - 0
        - 0
        - {}
    name: conv3d_36
  - class_name: Conv3D
    config:
      activation: linear
      activity_regularizer: null
      bias_constraint: null
      bias_initializer:
        class_name: Zeros
        config:
          dtype: float32
      bias_regularizer: null
      data_format: channels_last
      dilation_rate: *id001
      dtype: float32
      filters: 32
      kernel_constraint: null
      kernel_initializer:
        class_name: GlorotUniform
        config:
          dtype: float32
          seed: null
      kernel_regularizer: null
      kernel_size: *id004
      name: conv3d_38
      padding: same
      strides: *id005
      trainable: true
      use_bias: true
    inbound_nodes:
    - - - activation_41
        - 0
        - 0
        - {}
    name: conv3d_38
  - class_name: Conv3D
    config:
      activation: linear
      activity_regularizer: null
      bias_constraint: null
      bias_initializer:
        class_name: Zeros
        config:
          dtype: float32
      bias_regularizer: null
      data_format: channels_last
      dilation_rate: *id001
      dtype: float32
      filters: 32
      kernel_constraint: null
      kernel_initializer:
        class_name: GlorotUniform
        config:
          dtype: float32
          seed: null
      kernel_regularizer: null
      kernel_size: *id004
      name: conv3d_40
      padding: same
      strides: *id005
      trainable: true
      use_bias: true
    inbound_nodes:
    - - - activation_43
        - 0
        - 0
        - {}
    name: conv3d_40
  - class_name: Conv3D
    config:
      activation: linear
      activity_regularizer: null
      bias_constraint: null
      bias_initializer:
        class_name: Zeros
        config:
          dtype: float32
      bias_regularizer: null
      data_format: channels_last
      dilation_rate: *id001
      dtype: float32
      filters: 32
      kernel_constraint: null
      kernel_initializer:
        class_name: GlorotUniform
        config:
          dtype: float32
          seed: null
      kernel_regularizer: null
      kernel_size: *id004
      name: conv3d_42
      padding: same
      strides: *id005
      trainable: true
      use_bias: true
    inbound_nodes:
    - - - activation_45
        - 0
        - 0
        - {}
    name: conv3d_42
  - class_name: Conv3D
    config:
      activation: linear
      activity_regularizer: null
      bias_constraint: null
      bias_initializer:
        class_name: Zeros
        config:
          dtype: float32
      bias_regularizer: null
      data_format: channels_last
      dilation_rate: *id001
      dtype: float32
      filters: 32
      kernel_constraint: null
      kernel_initializer:
        class_name: GlorotUniform
        config:
          dtype: float32
          seed: null
      kernel_regularizer: null
      kernel_size: *id004
      name: conv3d_44
      padding: same
      strides: *id005
      trainable: true
      use_bias: true
    inbound_nodes:
    - - - activation_47
        - 0
        - 0
        - {}
    name: conv3d_44
  - class_name: Conv3D
    config:
      activation: linear
      activity_regularizer: null
      bias_constraint: null
      bias_initializer:
        class_name: Zeros
        config:
          dtype: float32
      bias_regularizer: null
      data_format: channels_last
      dilation_rate: *id001
      dtype: float32
      filters: 32
      kernel_constraint: null
      kernel_initializer:
        class_name: GlorotUniform
        config:
          dtype: float32
          seed: null
      kernel_regularizer: null
      kernel_size: *id004
      name: conv3d_46
      padding: same
      strides: *id005
      trainable: true
      use_bias: true
    inbound_nodes:
    - - - activation_49
        - 0
        - 0
        - {}
    name: conv3d_46
  - class_name: Conv3D
    config:
      activation: linear
      activity_regularizer: null
      bias_constraint: null
      bias_initializer:
        class_name: Zeros
        config:
          dtype: float32
      bias_regularizer: null
      data_format: channels_last
      dilation_rate: *id001
      dtype: float32
      filters: 32
      kernel_constraint: null
      kernel_initializer:
        class_name: GlorotUniform
        config:
          dtype: float32
          seed: null
      kernel_regularizer: null
      kernel_size: *id004
      name: conv3d_48
      padding: same
      strides: *id005
      trainable: true
      use_bias: true
    inbound_nodes:
    - - - activation_51
        - 0
        - 0
        - {}
    name: conv3d_48
  - class_name: Conv3D
    config:
      activation: linear
      activity_regularizer: null
      bias_constraint: null
      bias_initializer:
        class_name: Zeros
        config:
          dtype: float32
      bias_regularizer: null
      data_format: channels_last
      dilation_rate: *id001
      dtype: float32
      filters: 32
      kernel_constraint: null
      kernel_initializer:
        class_name: GlorotUniform
        config:
          dtype: float32
          seed: null
      kernel_regularizer: null
      kernel_size: *id004
      name: conv3d_50
      padding: same
      strides: *id005
      trainable: true
      use_bias: true
    inbound_nodes:
    - - - activation_53
        - 0
        - 0
        - {}
    name: conv3d_50
  - class_name: BatchNormalizationV1
    config:
      axis:
      - 4
      beta_constraint: null
      beta_initializer:
        class_name: Zeros
        config:
          dtype: float32
      beta_regularizer: null
      center: true
      dtype: float32
      epsilon: 0.001
      gamma_constraint: null
      gamma_initializer:
        class_name: Ones
        config:
          dtype: float32
      gamma_regularizer: null
      momentum: 0.99
      moving_mean_initializer:
        class_name: Zeros
        config:
          dtype: float32
      moving_variance_initializer:
        class_name: Ones
        config:
          dtype: float32
      name: batch_normalization_v1_36
      scale: true
      trainable: true
    inbound_nodes:
    - - - conv3d_36
        - 0
        - 0
        - training: true
    name: batch_normalization_v1_36
  - class_name: BatchNormalizationV1
    config:
      axis:
      - 4
      beta_constraint: null
      beta_initializer:
        class_name: Zeros
        config:
          dtype: float32
      beta_regularizer: null
      center: true
      dtype: float32
      epsilon: 0.001
      gamma_constraint: null
      gamma_initializer:
        class_name: Ones
        config:
          dtype: float32
      gamma_regularizer: null
      momentum: 0.99
      moving_mean_initializer:
        class_name: Zeros
        config:
          dtype: float32
      moving_variance_initializer:
        class_name: Ones
        config:
          dtype: float32
      name: batch_normalization_v1_38
      scale: true
      trainable: true
    inbound_nodes:
    - - - conv3d_38
        - 0
        - 0
        - training: true
    name: batch_normalization_v1_38
  - class_name: BatchNormalizationV1
    config:
      axis:
      - 4
      beta_constraint: null
      beta_initializer:
        class_name: Zeros
        config:
          dtype: float32
      beta_regularizer: null
      center: true
      dtype: float32
      epsilon: 0.001
      gamma_constraint: null
      gamma_initializer:
        class_name: Ones
        config:
          dtype: float32
      gamma_regularizer: null
      momentum: 0.99
      moving_mean_initializer:
        class_name: Zeros
        config:
          dtype: float32
      moving_variance_initializer:
        class_name: Ones
        config:
          dtype: float32
      name: batch_normalization_v1_40
      scale: true
      trainable: true
    inbound_nodes:
    - - - conv3d_40
        - 0
        - 0
        - training: true
    name: batch_normalization_v1_40
  - class_name: BatchNormalizationV1
    config:
      axis:
      - 4
      beta_constraint: null
      beta_initializer:
        class_name: Zeros
        config:
          dtype: float32
      beta_regularizer: null
      center: true
      dtype: float32
      epsilon: 0.001
      gamma_constraint: null
      gamma_initializer:
        class_name: Ones
        config:
          dtype: float32
      gamma_regularizer: null
      momentum: 0.99
      moving_mean_initializer:
        class_name: Zeros
        config:
          dtype: float32
      moving_variance_initializer:
        class_name: Ones
        config:
          dtype: float32
      name: batch_normalization_v1_42
      scale: true
      trainable: true
    inbound_nodes:
    - - - conv3d_42
        - 0
        - 0
        - training: true
    name: batch_normalization_v1_42
  - class_name: BatchNormalizationV1
    config:
      axis:
      - 4
      beta_constraint: null
      beta_initializer:
        class_name: Zeros
        config:
          dtype: float32
      beta_regularizer: null
      center: true
      dtype: float32
      epsilon: 0.001
      gamma_constraint: null
      gamma_initializer:
        class_name: Ones
        config:
          dtype: float32
      gamma_regularizer: null
      momentum: 0.99
      moving_mean_initializer:
        class_name: Zeros
        config:
          dtype: float32
      moving_variance_initializer:
        class_name: Ones
        config:
          dtype: float32
      name: batch_normalization_v1_44
      scale: true
      trainable: true
    inbound_nodes:
    - - - conv3d_44
        - 0
        - 0
        - training: true
    name: batch_normalization_v1_44
  - class_name: BatchNormalizationV1
    config:
      axis:
      - 4
      beta_constraint: null
      beta_initializer:
        class_name: Zeros
        config:
          dtype: float32
      beta_regularizer: null
      center: true
      dtype: float32
      epsilon: 0.001
      gamma_constraint: null
      gamma_initializer:
        class_name: Ones
        config:
          dtype: float32
      gamma_regularizer: null
      momentum: 0.99
      moving_mean_initializer:
        class_name: Zeros
        config:
          dtype: float32
      moving_variance_initializer:
        class_name: Ones
        config:
          dtype: float32
      name: batch_normalization_v1_46
      scale: true
      trainable: true
    inbound_nodes:
    - - - conv3d_46
        - 0
        - 0
        - training: true
    name: batch_normalization_v1_46
  - class_name: BatchNormalizationV1
    config:
      axis:
      - 4
      beta_constraint: null
      beta_initializer:
        class_name: Zeros
        config:
          dtype: float32
      beta_regularizer: null
      center: true
      dtype: float32
      epsilon: 0.001
      gamma_constraint: null
      gamma_initializer:
        class_name: Ones
        config:
          dtype: float32
      gamma_regularizer: null
      momentum: 0.99
      moving_mean_initializer:
        class_name: Zeros
        config:
          dtype: float32
      moving_variance_initializer:
        class_name: Ones
        config:
          dtype: float32
      name: batch_normalization_v1_48
      scale: true
      trainable: true
    inbound_nodes:
    - - - conv3d_48
        - 0
        - 0
        - training: true
    name: batch_normalization_v1_48
  - class_name: BatchNormalizationV1
    config:
      axis:
      - 4
      beta_constraint: null
      beta_initializer:
        class_name: Zeros
        config:
          dtype: float32
      beta_regularizer: null
      center: true
      dtype: float32
      epsilon: 0.001
      gamma_constraint: null
      gamma_initializer:
        class_name: Ones
        config:
          dtype: float32
      gamma_regularizer: null
      momentum: 0.99
      moving_mean_initializer:
        class_name: Zeros
        config:
          dtype: float32
      moving_variance_initializer:
        class_name: Ones
        config:
          dtype: float32
      name: batch_normalization_v1_50
      scale: true
      trainable: true
    inbound_nodes:
    - - - conv3d_50
        - 0
        - 0
        - training: true
    name: batch_normalization_v1_50
  - class_name: Activation
    config:
      activation: relu
      dtype: float32
      name: activation_40
      trainable: true
    inbound_nodes:
    - - - batch_normalization_v1_36
        - 0
        - 0
        - {}
    name: activation_40
  - class_name: Activation
    config:
      activation: relu
      dtype: float32
      name: activation_42
      trainable: true
    inbound_nodes:
    - - - batch_normalization_v1_38
        - 0
        - 0
        - {}
    name: activation_42
  - class_name: Activation
    config:
      activation: relu
      dtype: float32
      name: activation_44
      trainable: true
    inbound_nodes:
    - - - batch_normalization_v1_40
        - 0
        - 0
        - {}
    name: activation_44
  - class_name: Activation
    config:
      activation: relu
      dtype: float32
      name: activation_46
      trainable: true
    inbound_nodes:
    - - - batch_normalization_v1_42
        - 0
        - 0
        - {}
    name: activation_46
  - class_name: Activation
    config:
      activation: relu
      dtype: float32
      name: activation_48
      trainable: true
    inbound_nodes:
    - - - batch_normalization_v1_44
        - 0
        - 0
        - {}
    name: activation_48
  - class_name: Activation
    config:
      activation: relu
      dtype: float32
      name: activation_50
      trainable: true
    inbound_nodes:
    - - - batch_normalization_v1_46
        - 0
        - 0
        - {}
    name: activation_50
  - class_name: Activation
    config:
      activation: relu
      dtype: float32
      name: activation_52
      trainable: true
    inbound_nodes:
    - - - batch_normalization_v1_48
        - 0
        - 0
        - {}
    name: activation_52
  - class_name: Activation
    config:
      activation: relu
      dtype: float32
      name: activation_54
      trainable: true
    inbound_nodes:
    - - - batch_normalization_v1_50
        - 0
        - 0
        - {}
    name: activation_54
  - class_name: Concatenate
    config:
      axis: -1
      dtype: float32
      name: concatenate_2
      trainable: true
    inbound_nodes:
    - - - activation_40
        - 0
        - 0
        - &id014 {}
      - - activation_42
        - 0
        - 0
        - *id014
      - - activation_44
        - 0
        - 0
        - *id014
      - - activation_46
        - 0
        - 0
        - *id014
      - - activation_48
        - 0
        - 0
        - *id014
      - - activation_50
        - 0
        - 0
        - *id014
      - - activation_52
        - 0
        - 0
        - *id014
      - - activation_54
        - 0
        - 0
        - *id014
    name: concatenate_2
  - class_name: Conv3D
    config:
      activation: linear
      activity_regularizer: null
      bias_constraint: null
      bias_initializer:
        class_name: Zeros
        config:
          dtype: float32
      bias_regularizer: null
      data_format: channels_last
      dilation_rate: *id001
      dtype: float32
      filters: 32
      kernel_constraint: null
      kernel_initializer:
        class_name: GlorotUniform
        config:
          dtype: float32
          seed: null
      kernel_regularizer: null
      kernel_size: *id010
      name: conv3d_51
      padding: same
      strides: *id011
      trainable: true
      use_bias: true
    inbound_nodes:
    - - - concatenate_2
        - 0
        - 0
        - {}
    name: conv3d_51
  - class_name: BatchNormalizationV1
    config:
      axis:
      - 4
      beta_constraint: null
      beta_initializer:
        class_name: Zeros
        config:
          dtype: float32
      beta_regularizer: null
      center: true
      dtype: float32
      epsilon: 0.001
      gamma_constraint: null
      gamma_initializer:
        class_name: Ones
        config:
          dtype: float32
      gamma_regularizer: null
      momentum: 0.99
      moving_mean_initializer:
        class_name: Zeros
        config:
          dtype: float32
      moving_variance_initializer:
        class_name: Ones
        config:
          dtype: float32
      name: batch_normalization_v1_51
      scale: true
      trainable: true
    inbound_nodes:
    - - - conv3d_51
        - 0
        - 0
        - training: true
    name: batch_normalization_v1_51
  - class_name: GlobalAveragePooling3D
    config:
      data_format: channels_last
      dtype: float32
      name: global_average_pooling3d_2
      trainable: true
    inbound_nodes:
    - - - batch_normalization_v1_51
        - 0
        - 0
        - {}
    name: global_average_pooling3d_2
  - class_name: Dense
    config:
      activation: linear
      activity_regularizer: null
      bias_constraint: null
      bias_initializer:
        class_name: Zeros
        config:
          dtype: float32
      bias_regularizer: null
      dtype: float32
      kernel_constraint: null
      kernel_initializer:
        class_name: GlorotUniform
        config:
          dtype: float32
          seed: null
      kernel_regularizer: null
      name: dense_4
      trainable: true
      units: 8
      use_bias: true
    inbound_nodes:
    - - - global_average_pooling3d_2
        - 0
        - 0
        - {}
    name: dense_4
  - class_name: Activation
    config:
      activation: relu
      dtype: float32
      name: activation_55
      trainable: true
    inbound_nodes:
    - - - dense_4
        - 0
        - 0
        - {}
    name: activation_55
  - class_name: Dense
    config:
      activation: linear
      activity_regularizer: null
      bias_constraint: null
      bias_initializer:
        class_name: Zeros
        config:
          dtype: float32
      bias_regularizer: null
      dtype: float32
      kernel_constraint: null
      kernel_initializer:
        class_name: GlorotUniform
        config:
          dtype: float32
          seed: null
      kernel_regularizer: null
      name: dense_5
      trainable: true
      units: 32
      use_bias: true
    inbound_nodes:
    - - - activation_55
        - 0
        - 0
        - {}
    name: dense_5
  - class_name: Activation
    config:
      activation: sigmoid
      dtype: float32
      name: activation_56
      trainable: true
    inbound_nodes:
    - - - dense_5
        - 0
        - 0
        - {}
    name: activation_56
  - class_name: Reshape
    config:
      dtype: float32
      name: reshape_2
      target_shape: !!python/tuple
      - 1
      - 1
      - 1
      - 32
      trainable: true
    inbound_nodes:
    - - - activation_56
        - 0
        - 0
        - {}
    name: reshape_2
  - class_name: Multiply
    config:
      dtype: float32
      name: multiply_2
      trainable: true
    inbound_nodes:
    - - - batch_normalization_v1_51
        - 0
        - 0
        - &id015 {}
      - - reshape_2
        - 0
        - 0
        - *id015
    name: multiply_2
  - class_name: Add
    config:
      dtype: float32
      name: add_2
      trainable: true
    inbound_nodes:
    - - - multiply_2
        - 0
        - 0
        - &id016 {}
      - - activation_38
        - 0
        - 0
        - *id016
    name: add_2
  - class_name: Activation
    config:
      activation: relu
      dtype: float32
      name: activation_57
      trainable: true
    inbound_nodes:
    - - - add_2
        - 0
        - 0
        - {}
    name: activation_57
  - class_name: Conv3D
    config:
      activation: linear
      activity_regularizer: null
      bias_constraint: null
      bias_initializer:
        class_name: Zeros
        config:
          dtype: float32
      bias_regularizer: null
      data_format: channels_last
      dilation_rate: *id001
      dtype: float32
      filters: 32
      kernel_constraint: null
      kernel_initializer:
        class_name: GlorotUniform
        config:
          dtype: float32
          seed: null
      kernel_regularizer: null
      kernel_size: *id002
      name: conv3d_52
      padding: same
      strides: *id003
      trainable: true
      use_bias: true
    inbound_nodes:
    - - - activation_57
        - 0
        - 0
        - {}
    name: conv3d_52
  - class_name: Conv3D
    config:
      activation: linear
      activity_regularizer: null
      bias_constraint: null
      bias_initializer:
        class_name: Zeros
        config:
          dtype: float32
      bias_regularizer: null
      data_format: channels_last
      dilation_rate: *id001
      dtype: float32
      filters: 32
      kernel_constraint: null
      kernel_initializer:
        class_name: GlorotUniform
        config:
          dtype: float32
          seed: null
      kernel_regularizer: null
      kernel_size: *id002
      name: conv3d_54
      padding: same
      strides: *id003
      trainable: true
      use_bias: true
    inbound_nodes:
    - - - activation_57
        - 0
        - 0
        - {}
    name: conv3d_54
  - class_name: Conv3D
    config:
      activation: linear
      activity_regularizer: null
      bias_constraint: null
      bias_initializer:
        class_name: Zeros
        config:
          dtype: float32
      bias_regularizer: null
      data_format: channels_last
      dilation_rate: *id001
      dtype: float32
      filters: 32
      kernel_constraint: null
      kernel_initializer:
        class_name: GlorotUniform
        config:
          dtype: float32
          seed: null
      kernel_regularizer: null
      kernel_size: *id002
      name: conv3d_56
      padding: same
      strides: *id003
      trainable: true
      use_bias: true
    inbound_nodes:
    - - - activation_57
        - 0
        - 0
        - {}
    name: conv3d_56
  - class_name: Conv3D
    config:
      activation: linear
      activity_regularizer: null
      bias_constraint: null
      bias_initializer:
        class_name: Zeros
        config:
          dtype: float32
      bias_regularizer: null
      data_format: channels_last
      dilation_rate: *id001
      dtype: float32
      filters: 32
      kernel_constraint: null
      kernel_initializer:
        class_name: GlorotUniform
        config:
          dtype: float32
          seed: null
      kernel_regularizer: null
      kernel_size: *id002
      name: conv3d_58
      padding: same
      strides: *id003
      trainable: true
      use_bias: true
    inbound_nodes:
    - - - activation_57
        - 0
        - 0
        - {}
    name: conv3d_58
  - class_name: Conv3D
    config:
      activation: linear
      activity_regularizer: null
      bias_constraint: null
      bias_initializer:
        class_name: Zeros
        config:
          dtype: float32
      bias_regularizer: null
      data_format: channels_last
      dilation_rate: *id001
      dtype: float32
      filters: 32
      kernel_constraint: null
      kernel_initializer:
        class_name: GlorotUniform
        config:
          dtype: float32
          seed: null
      kernel_regularizer: null
      kernel_size: *id002
      name: conv3d_60
      padding: same
      strides: *id003
      trainable: true
      use_bias: true
    inbound_nodes:
    - - - activation_57
        - 0
        - 0
        - {}
    name: conv3d_60
  - class_name: Conv3D
    config:
      activation: linear
      activity_regularizer: null
      bias_constraint: null
      bias_initializer:
        class_name: Zeros
        config:
          dtype: float32
      bias_regularizer: null
      data_format: channels_last
      dilation_rate: *id001
      dtype: float32
      filters: 32
      kernel_constraint: null
      kernel_initializer:
        class_name: GlorotUniform
        config:
          dtype: float32
          seed: null
      kernel_regularizer: null
      kernel_size: *id002
      name: conv3d_62
      padding: same
      strides: *id003
      trainable: true
      use_bias: true
    inbound_nodes:
    - - - activation_57
        - 0
        - 0
        - {}
    name: conv3d_62
  - class_name: Conv3D
    config:
      activation: linear
      activity_regularizer: null
      bias_constraint: null
      bias_initializer:
        class_name: Zeros
        config:
          dtype: float32
      bias_regularizer: null
      data_format: channels_last
      dilation_rate: *id001
      dtype: float32
      filters: 32
      kernel_constraint: null
      kernel_initializer:
        class_name: GlorotUniform
        config:
          dtype: float32
          seed: null
      kernel_regularizer: null
      kernel_size: *id002
      name: conv3d_64
      padding: same
      strides: *id003
      trainable: true
      use_bias: true
    inbound_nodes:
    - - - activation_57
        - 0
        - 0
        - {}
    name: conv3d_64
  - class_name: Conv3D
    config:
      activation: linear
      activity_regularizer: null
      bias_constraint: null
      bias_initializer:
        class_name: Zeros
        config:
          dtype: float32
      bias_regularizer: null
      data_format: channels_last
      dilation_rate: *id001
      dtype: float32
      filters: 32
      kernel_constraint: null
      kernel_initializer:
        class_name: GlorotUniform
        config:
          dtype: float32
          seed: null
      kernel_regularizer: null
      kernel_size: *id002
      name: conv3d_66
      padding: same
      strides: *id003
      trainable: true
      use_bias: true
    inbound_nodes:
    - - - activation_57
        - 0
        - 0
        - {}
    name: conv3d_66
  - class_name: BatchNormalizationV1
    config:
      axis:
      - 4
      beta_constraint: null
      beta_initializer:
        class_name: Zeros
        config:
          dtype: float32
      beta_regularizer: null
      center: true
      dtype: float32
      epsilon: 0.001
      gamma_constraint: null
      gamma_initializer:
        class_name: Ones
        config:
          dtype: float32
      gamma_regularizer: null
      momentum: 0.99
      moving_mean_initializer:
        class_name: Zeros
        config:
          dtype: float32
      moving_variance_initializer:
        class_name: Ones
        config:
          dtype: float32
      name: batch_normalization_v1_52
      scale: true
      trainable: true
    inbound_nodes:
    - - - conv3d_52
        - 0
        - 0
        - training: true
    name: batch_normalization_v1_52
  - class_name: BatchNormalizationV1
    config:
      axis:
      - 4
      beta_constraint: null
      beta_initializer:
        class_name: Zeros
        config:
          dtype: float32
      beta_regularizer: null
      center: true
      dtype: float32
      epsilon: 0.001
      gamma_constraint: null
      gamma_initializer:
        class_name: Ones
        config:
          dtype: float32
      gamma_regularizer: null
      momentum: 0.99
      moving_mean_initializer:
        class_name: Zeros
        config:
          dtype: float32
      moving_variance_initializer:
        class_name: Ones
        config:
          dtype: float32
      name: batch_normalization_v1_54
      scale: true
      trainable: true
    inbound_nodes:
    - - - conv3d_54
        - 0
        - 0
        - training: true
    name: batch_normalization_v1_54
  - class_name: BatchNormalizationV1
    config:
      axis:
      - 4
      beta_constraint: null
      beta_initializer:
        class_name: Zeros
        config:
          dtype: float32
      beta_regularizer: null
      center: true
      dtype: float32
      epsilon: 0.001
      gamma_constraint: null
      gamma_initializer:
        class_name: Ones
        config:
          dtype: float32
      gamma_regularizer: null
      momentum: 0.99
      moving_mean_initializer:
        class_name: Zeros
        config:
          dtype: float32
      moving_variance_initializer:
        class_name: Ones
        config:
          dtype: float32
      name: batch_normalization_v1_56
      scale: true
      trainable: true
    inbound_nodes:
    - - - conv3d_56
        - 0
        - 0
        - training: true
    name: batch_normalization_v1_56
  - class_name: BatchNormalizationV1
    config:
      axis:
      - 4
      beta_constraint: null
      beta_initializer:
        class_name: Zeros
        config:
          dtype: float32
      beta_regularizer: null
      center: true
      dtype: float32
      epsilon: 0.001
      gamma_constraint: null
      gamma_initializer:
        class_name: Ones
        config:
          dtype: float32
      gamma_regularizer: null
      momentum: 0.99
      moving_mean_initializer:
        class_name: Zeros
        config:
          dtype: float32
      moving_variance_initializer:
        class_name: Ones
        config:
          dtype: float32
      name: batch_normalization_v1_58
      scale: true
      trainable: true
    inbound_nodes:
    - - - conv3d_58
        - 0
        - 0
        - training: true
    name: batch_normalization_v1_58
  - class_name: BatchNormalizationV1
    config:
      axis:
      - 4
      beta_constraint: null
      beta_initializer:
        class_name: Zeros
        config:
          dtype: float32
      beta_regularizer: null
      center: true
      dtype: float32
      epsilon: 0.001
      gamma_constraint: null
      gamma_initializer:
        class_name: Ones
        config:
          dtype: float32
      gamma_regularizer: null
      momentum: 0.99
      moving_mean_initializer:
        class_name: Zeros
        config:
          dtype: float32
      moving_variance_initializer:
        class_name: Ones
        config:
          dtype: float32
      name: batch_normalization_v1_60
      scale: true
      trainable: true
    inbound_nodes:
    - - - conv3d_60
        - 0
        - 0
        - training: true
    name: batch_normalization_v1_60
  - class_name: BatchNormalizationV1
    config:
      axis:
      - 4
      beta_constraint: null
      beta_initializer:
        class_name: Zeros
        config:
          dtype: float32
      beta_regularizer: null
      center: true
      dtype: float32
      epsilon: 0.001
      gamma_constraint: null
      gamma_initializer:
        class_name: Ones
        config:
          dtype: float32
      gamma_regularizer: null
      momentum: 0.99
      moving_mean_initializer:
        class_name: Zeros
        config:
          dtype: float32
      moving_variance_initializer:
        class_name: Ones
        config:
          dtype: float32
      name: batch_normalization_v1_62
      scale: true
      trainable: true
    inbound_nodes:
    - - - conv3d_62
        - 0
        - 0
        - training: true
    name: batch_normalization_v1_62
  - class_name: BatchNormalizationV1
    config:
      axis:
      - 4
      beta_constraint: null
      beta_initializer:
        class_name: Zeros
        config:
          dtype: float32
      beta_regularizer: null
      center: true
      dtype: float32
      epsilon: 0.001
      gamma_constraint: null
      gamma_initializer:
        class_name: Ones
        config:
          dtype: float32
      gamma_regularizer: null
      momentum: 0.99
      moving_mean_initializer:
        class_name: Zeros
        config:
          dtype: float32
      moving_variance_initializer:
        class_name: Ones
        config:
          dtype: float32
      name: batch_normalization_v1_64
      scale: true
      trainable: true
    inbound_nodes:
    - - - conv3d_64
        - 0
        - 0
        - training: true
    name: batch_normalization_v1_64
  - class_name: BatchNormalizationV1
    config:
      axis:
      - 4
      beta_constraint: null
      beta_initializer:
        class_name: Zeros
        config:
          dtype: float32
      beta_regularizer: null
      center: true
      dtype: float32
      epsilon: 0.001
      gamma_constraint: null
      gamma_initializer:
        class_name: Ones
        config:
          dtype: float32
      gamma_regularizer: null
      momentum: 0.99
      moving_mean_initializer:
        class_name: Zeros
        config:
          dtype: float32
      moving_variance_initializer:
        class_name: Ones
        config:
          dtype: float32
      name: batch_normalization_v1_66
      scale: true
      trainable: true
    inbound_nodes:
    - - - conv3d_66
        - 0
        - 0
        - training: true
    name: batch_normalization_v1_66
  - class_name: Activation
    config:
      activation: relu
      dtype: float32
      name: activation_58
      trainable: true
    inbound_nodes:
    - - - batch_normalization_v1_52
        - 0
        - 0
        - {}
    name: activation_58
  - class_name: Activation
    config:
      activation: relu
      dtype: float32
      name: activation_60
      trainable: true
    inbound_nodes:
    - - - batch_normalization_v1_54
        - 0
        - 0
        - {}
    name: activation_60
  - class_name: Activation
    config:
      activation: relu
      dtype: float32
      name: activation_62
      trainable: true
    inbound_nodes:
    - - - batch_normalization_v1_56
        - 0
        - 0
        - {}
    name: activation_62
  - class_name: Activation
    config:
      activation: relu
      dtype: float32
      name: activation_64
      trainable: true
    inbound_nodes:
    - - - batch_normalization_v1_58
        - 0
        - 0
        - {}
    name: activation_64
  - class_name: Activation
    config:
      activation: relu
      dtype: float32
      name: activation_66
      trainable: true
    inbound_nodes:
    - - - batch_normalization_v1_60
        - 0
        - 0
        - {}
    name: activation_66
  - class_name: Activation
    config:
      activation: relu
      dtype: float32
      name: activation_68
      trainable: true
    inbound_nodes:
    - - - batch_normalization_v1_62
        - 0
        - 0
        - {}
    name: activation_68
  - class_name: Activation
    config:
      activation: relu
      dtype: float32
      name: activation_70
      trainable: true
    inbound_nodes:
    - - - batch_normalization_v1_64
        - 0
        - 0
        - {}
    name: activation_70
  - class_name: Activation
    config:
      activation: relu
      dtype: float32
      name: activation_72
      trainable: true
    inbound_nodes:
    - - - batch_normalization_v1_66
        - 0
        - 0
        - {}
    name: activation_72
  - class_name: Conv3D
    config:
      activation: linear
      activity_regularizer: null
      bias_constraint: null
      bias_initializer:
        class_name: Zeros
        config:
          dtype: float32
      bias_regularizer: null
      data_format: channels_last
      dilation_rate: *id001
      dtype: float32
      filters: 32
      kernel_constraint: null
      kernel_initializer:
        class_name: GlorotUniform
        config:
          dtype: float32
          seed: null
      kernel_regularizer: null
      kernel_size: *id004
      name: conv3d_53
      padding: same
      strides: &id017 !!python/tuple
      - 2
      - 2
      - 2
      trainable: true
      use_bias: true
    inbound_nodes:
    - - - activation_58
        - 0
        - 0
        - {}
    name: conv3d_53
  - class_name: Conv3D
    config:
      activation: linear
      activity_regularizer: null
      bias_constraint: null
      bias_initializer:
        class_name: Zeros
        config:
          dtype: float32
      bias_regularizer: null
      data_format: channels_last
      dilation_rate: *id001
      dtype: float32
      filters: 32
      kernel_constraint: null
      kernel_initializer:
        class_name: GlorotUniform
        config:
          dtype: float32
          seed: null
      kernel_regularizer: null
      kernel_size: *id004
      name: conv3d_55
      padding: same
      strides: *id017
      trainable: true
      use_bias: true
    inbound_nodes:
    - - - activation_60
        - 0
        - 0
        - {}
    name: conv3d_55
  - class_name: Conv3D
    config:
      activation: linear
      activity_regularizer: null
      bias_constraint: null
      bias_initializer:
        class_name: Zeros
        config:
          dtype: float32
      bias_regularizer: null
      data_format: channels_last
      dilation_rate: *id001
      dtype: float32
      filters: 32
      kernel_constraint: null
      kernel_initializer:
        class_name: GlorotUniform
        config:
          dtype: float32
          seed: null
      kernel_regularizer: null
      kernel_size: *id004
      name: conv3d_57
      padding: same
      strides: *id017
      trainable: true
      use_bias: true
    inbound_nodes:
    - - - activation_62
        - 0
        - 0
        - {}
    name: conv3d_57
  - class_name: Conv3D
    config:
      activation: linear
      activity_regularizer: null
      bias_constraint: null
      bias_initializer:
        class_name: Zeros
        config:
          dtype: float32
      bias_regularizer: null
      data_format: channels_last
      dilation_rate: *id001
      dtype: float32
      filters: 32
      kernel_constraint: null
      kernel_initializer:
        class_name: GlorotUniform
        config:
          dtype: float32
          seed: null
      kernel_regularizer: null
      kernel_size: *id004
      name: conv3d_59
      padding: same
      strides: *id017
      trainable: true
      use_bias: true
    inbound_nodes:
    - - - activation_64
        - 0
        - 0
        - {}
    name: conv3d_59
  - class_name: Conv3D
    config:
      activation: linear
      activity_regularizer: null
      bias_constraint: null
      bias_initializer:
        class_name: Zeros
        config:
          dtype: float32
      bias_regularizer: null
      data_format: channels_last
      dilation_rate: *id001
      dtype: float32
      filters: 32
      kernel_constraint: null
      kernel_initializer:
        class_name: GlorotUniform
        config:
          dtype: float32
          seed: null
      kernel_regularizer: null
      kernel_size: *id004
      name: conv3d_61
      padding: same
      strides: *id017
      trainable: true
      use_bias: true
    inbound_nodes:
    - - - activation_66
        - 0
        - 0
        - {}
    name: conv3d_61
  - class_name: Conv3D
    config:
      activation: linear
      activity_regularizer: null
      bias_constraint: null
      bias_initializer:
        class_name: Zeros
        config:
          dtype: float32
      bias_regularizer: null
      data_format: channels_last
      dilation_rate: *id001
      dtype: float32
      filters: 32
      kernel_constraint: null
      kernel_initializer:
        class_name: GlorotUniform
        config:
          dtype: float32
          seed: null
      kernel_regularizer: null
      kernel_size: *id004
      name: conv3d_63
      padding: same
      strides: *id017
      trainable: true
      use_bias: true
    inbound_nodes:
    - - - activation_68
        - 0
        - 0
        - {}
    name: conv3d_63
  - class_name: Conv3D
    config:
      activation: linear
      activity_regularizer: null
      bias_constraint: null
      bias_initializer:
        class_name: Zeros
        config:
          dtype: float32
      bias_regularizer: null
      data_format: channels_last
      dilation_rate: *id001
      dtype: float32
      filters: 32
      kernel_constraint: null
      kernel_initializer:
        class_name: GlorotUniform
        config:
          dtype: float32
          seed: null
      kernel_regularizer: null
      kernel_size: *id004
      name: conv3d_65
      padding: same
      strides: *id017
      trainable: true
      use_bias: true
    inbound_nodes:
    - - - activation_70
        - 0
        - 0
        - {}
    name: conv3d_65
  - class_name: Conv3D
    config:
      activation: linear
      activity_regularizer: null
      bias_constraint: null
      bias_initializer:
        class_name: Zeros
        config:
          dtype: float32
      bias_regularizer: null
      data_format: channels_last
      dilation_rate: *id001
      dtype: float32
      filters: 32
      kernel_constraint: null
      kernel_initializer:
        class_name: GlorotUniform
        config:
          dtype: float32
          seed: null
      kernel_regularizer: null
      kernel_size: *id004
      name: conv3d_67
      padding: same
      strides: *id017
      trainable: true
      use_bias: true
    inbound_nodes:
    - - - activation_72
        - 0
        - 0
        - {}
    name: conv3d_67
  - class_name: BatchNormalizationV1
    config:
      axis:
      - 4
      beta_constraint: null
      beta_initializer:
        class_name: Zeros
        config:
          dtype: float32
      beta_regularizer: null
      center: true
      dtype: float32
      epsilon: 0.001
      gamma_constraint: null
      gamma_initializer:
        class_name: Ones
        config:
          dtype: float32
      gamma_regularizer: null
      momentum: 0.99
      moving_mean_initializer:
        class_name: Zeros
        config:
          dtype: float32
      moving_variance_initializer:
        class_name: Ones
        config:
          dtype: float32
      name: batch_normalization_v1_53
      scale: true
      trainable: true
    inbound_nodes:
    - - - conv3d_53
        - 0
        - 0
        - training: true
    name: batch_normalization_v1_53
  - class_name: BatchNormalizationV1
    config:
      axis:
      - 4
      beta_constraint: null
      beta_initializer:
        class_name: Zeros
        config:
          dtype: float32
      beta_regularizer: null
      center: true
      dtype: float32
      epsilon: 0.001
      gamma_constraint: null
      gamma_initializer:
        class_name: Ones
        config:
          dtype: float32
      gamma_regularizer: null
      momentum: 0.99
      moving_mean_initializer:
        class_name: Zeros
        config:
          dtype: float32
      moving_variance_initializer:
        class_name: Ones
        config:
          dtype: float32
      name: batch_normalization_v1_55
      scale: true
      trainable: true
    inbound_nodes:
    - - - conv3d_55
        - 0
        - 0
        - training: true
    name: batch_normalization_v1_55
  - class_name: BatchNormalizationV1
    config:
      axis:
      - 4
      beta_constraint: null
      beta_initializer:
        class_name: Zeros
        config:
          dtype: float32
      beta_regularizer: null
      center: true
      dtype: float32
      epsilon: 0.001
      gamma_constraint: null
      gamma_initializer:
        class_name: Ones
        config:
          dtype: float32
      gamma_regularizer: null
      momentum: 0.99
      moving_mean_initializer:
        class_name: Zeros
        config:
          dtype: float32
      moving_variance_initializer:
        class_name: Ones
        config:
          dtype: float32
      name: batch_normalization_v1_57
      scale: true
      trainable: true
    inbound_nodes:
    - - - conv3d_57
        - 0
        - 0
        - training: true
    name: batch_normalization_v1_57
  - class_name: BatchNormalizationV1
    config:
      axis:
      - 4
      beta_constraint: null
      beta_initializer:
        class_name: Zeros
        config:
          dtype: float32
      beta_regularizer: null
      center: true
      dtype: float32
      epsilon: 0.001
      gamma_constraint: null
      gamma_initializer:
        class_name: Ones
        config:
          dtype: float32
      gamma_regularizer: null
      momentum: 0.99
      moving_mean_initializer:
        class_name: Zeros
        config:
          dtype: float32
      moving_variance_initializer:
        class_name: Ones
        config:
          dtype: float32
      name: batch_normalization_v1_59
      scale: true
      trainable: true
    inbound_nodes:
    - - - conv3d_59
        - 0
        - 0
        - training: true
    name: batch_normalization_v1_59
  - class_name: BatchNormalizationV1
    config:
      axis:
      - 4
      beta_constraint: null
      beta_initializer:
        class_name: Zeros
        config:
          dtype: float32
      beta_regularizer: null
      center: true
      dtype: float32
      epsilon: 0.001
      gamma_constraint: null
      gamma_initializer:
        class_name: Ones
        config:
          dtype: float32
      gamma_regularizer: null
      momentum: 0.99
      moving_mean_initializer:
        class_name: Zeros
        config:
          dtype: float32
      moving_variance_initializer:
        class_name: Ones
        config:
          dtype: float32
      name: batch_normalization_v1_61
      scale: true
      trainable: true
    inbound_nodes:
    - - - conv3d_61
        - 0
        - 0
        - training: true
    name: batch_normalization_v1_61
  - class_name: BatchNormalizationV1
    config:
      axis:
      - 4
      beta_constraint: null
      beta_initializer:
        class_name: Zeros
        config:
          dtype: float32
      beta_regularizer: null
      center: true
      dtype: float32
      epsilon: 0.001
      gamma_constraint: null
      gamma_initializer:
        class_name: Ones
        config:
          dtype: float32
      gamma_regularizer: null
      momentum: 0.99
      moving_mean_initializer:
        class_name: Zeros
        config:
          dtype: float32
      moving_variance_initializer:
        class_name: Ones
        config:
          dtype: float32
      name: batch_normalization_v1_63
      scale: true
      trainable: true
    inbound_nodes:
    - - - conv3d_63
        - 0
        - 0
        - training: true
    name: batch_normalization_v1_63
  - class_name: BatchNormalizationV1
    config:
      axis:
      - 4
      beta_constraint: null
      beta_initializer:
        class_name: Zeros
        config:
          dtype: float32
      beta_regularizer: null
      center: true
      dtype: float32
      epsilon: 0.001
      gamma_constraint: null
      gamma_initializer:
        class_name: Ones
        config:
          dtype: float32
      gamma_regularizer: null
      momentum: 0.99
      moving_mean_initializer:
        class_name: Zeros
        config:
          dtype: float32
      moving_variance_initializer:
        class_name: Ones
        config:
          dtype: float32
      name: batch_normalization_v1_65
      scale: true
      trainable: true
    inbound_nodes:
    - - - conv3d_65
        - 0
        - 0
        - training: true
    name: batch_normalization_v1_65
  - class_name: BatchNormalizationV1
    config:
      axis:
      - 4
      beta_constraint: null
      beta_initializer:
        class_name: Zeros
        config:
          dtype: float32
      beta_regularizer: null
      center: true
      dtype: float32
      epsilon: 0.001
      gamma_constraint: null
      gamma_initializer:
        class_name: Ones
        config:
          dtype: float32
      gamma_regularizer: null
      momentum: 0.99
      moving_mean_initializer:
        class_name: Zeros
        config:
          dtype: float32
      moving_variance_initializer:
        class_name: Ones
        config:
          dtype: float32
      name: batch_normalization_v1_67
      scale: true
      trainable: true
    inbound_nodes:
    - - - conv3d_67
        - 0
        - 0
        - training: true
    name: batch_normalization_v1_67
  - class_name: Activation
    config:
      activation: relu
      dtype: float32
      name: activation_59
      trainable: true
    inbound_nodes:
    - - - batch_normalization_v1_53
        - 0
        - 0
        - {}
    name: activation_59
  - class_name: Activation
    config:
      activation: relu
      dtype: float32
      name: activation_61
      trainable: true
    inbound_nodes:
    - - - batch_normalization_v1_55
        - 0
        - 0
        - {}
    name: activation_61
  - class_name: Activation
    config:
      activation: relu
      dtype: float32
      name: activation_63
      trainable: true
    inbound_nodes:
    - - - batch_normalization_v1_57
        - 0
        - 0
        - {}
    name: activation_63
  - class_name: Activation
    config:
      activation: relu
      dtype: float32
      name: activation_65
      trainable: true
    inbound_nodes:
    - - - batch_normalization_v1_59
        - 0
        - 0
        - {}
    name: activation_65
  - class_name: Activation
    config:
      activation: relu
      dtype: float32
      name: activation_67
      trainable: true
    inbound_nodes:
    - - - batch_normalization_v1_61
        - 0
        - 0
        - {}
    name: activation_67
  - class_name: Activation
    config:
      activation: relu
      dtype: float32
      name: activation_69
      trainable: true
    inbound_nodes:
    - - - batch_normalization_v1_63
        - 0
        - 0
        - {}
    name: activation_69
  - class_name: Activation
    config:
      activation: relu
      dtype: float32
      name: activation_71
      trainable: true
    inbound_nodes:
    - - - batch_normalization_v1_65
        - 0
        - 0
        - {}
    name: activation_71
  - class_name: Activation
    config:
      activation: relu
      dtype: float32
      name: activation_73
      trainable: true
    inbound_nodes:
    - - - batch_normalization_v1_67
        - 0
        - 0
        - {}
    name: activation_73
  - class_name: Concatenate
    config:
      axis: -1
      dtype: float32
      name: concatenate_3
      trainable: true
    inbound_nodes:
    - - - activation_59
        - 0
        - 0
        - &id018 {}
      - - activation_61
        - 0
        - 0
        - *id018
      - - activation_63
        - 0
        - 0
        - *id018
      - - activation_65
        - 0
        - 0
        - *id018
      - - activation_67
        - 0
        - 0
        - *id018
      - - activation_69
        - 0
        - 0
        - *id018
      - - activation_71
        - 0
        - 0
        - *id018
      - - activation_73
        - 0
        - 0
        - *id018
    name: concatenate_3
  - class_name: Conv3D
    config:
      activation: linear
      activity_regularizer: null
      bias_constraint: null
      bias_initializer:
        class_name: Zeros
        config:
          dtype: float32
      bias_regularizer: null
      data_format: channels_last
      dilation_rate: *id001
      dtype: float32
      filters: 64
      kernel_constraint: null
      kernel_initializer:
        class_name: GlorotUniform
        config:
          dtype: float32
          seed: null
      kernel_regularizer: null
      kernel_size: *id010
      name: conv3d_68
      padding: same
      strides: *id011
      trainable: true
      use_bias: true
    inbound_nodes:
    - - - concatenate_3
        - 0
        - 0
        - {}
    name: conv3d_68
  - class_name: BatchNormalizationV1
    config:
      axis:
      - 4
      beta_constraint: null
      beta_initializer:
        class_name: Zeros
        config:
          dtype: float32
      beta_regularizer: null
      center: true
      dtype: float32
      epsilon: 0.001
      gamma_constraint: null
      gamma_initializer:
        class_name: Ones
        config:
          dtype: float32
      gamma_regularizer: null
      momentum: 0.99
      moving_mean_initializer:
        class_name: Zeros
        config:
          dtype: float32
      moving_variance_initializer:
        class_name: Ones
        config:
          dtype: float32
      name: batch_normalization_v1_68
      scale: true
      trainable: true
    inbound_nodes:
    - - - conv3d_68
        - 0
        - 0
        - training: true
    name: batch_normalization_v1_68
  - class_name: GlobalAveragePooling3D
    config:
      data_format: channels_last
      dtype: float32
      name: global_average_pooling3d_3
      trainable: true
    inbound_nodes:
    - - - batch_normalization_v1_68
        - 0
        - 0
        - {}
    name: global_average_pooling3d_3
  - class_name: Dense
    config:
      activation: linear
      activity_regularizer: null
      bias_constraint: null
      bias_initializer:
        class_name: Zeros
        config:
          dtype: float32
      bias_regularizer: null
      dtype: float32
      kernel_constraint: null
      kernel_initializer:
        class_name: GlorotUniform
        config:
          dtype: float32
          seed: null
      kernel_regularizer: null
      name: dense_6
      trainable: true
      units: 16
      use_bias: true
    inbound_nodes:
    - - - global_average_pooling3d_3
        - 0
        - 0
        - {}
    name: dense_6
  - class_name: Activation
    config:
      activation: relu
      dtype: float32
      name: activation_74
      trainable: true
    inbound_nodes:
    - - - dense_6
        - 0
        - 0
        - {}
    name: activation_74
  - class_name: Dense
    config:
      activation: linear
      activity_regularizer: null
      bias_constraint: null
      bias_initializer:
        class_name: Zeros
        config:
          dtype: float32
      bias_regularizer: null
      dtype: float32
      kernel_constraint: null
      kernel_initializer:
        class_name: GlorotUniform
        config:
          dtype: float32
          seed: null
      kernel_regularizer: null
      name: dense_7
      trainable: true
      units: 64
      use_bias: true
    inbound_nodes:
    - - - activation_74
        - 0
        - 0
        - {}
    name: dense_7
  - class_name: Activation
    config:
      activation: sigmoid
      dtype: float32
      name: activation_75
      trainable: true
    inbound_nodes:
    - - - dense_7
        - 0
        - 0
        - {}
    name: activation_75
  - class_name: Reshape
    config:
      dtype: float32
      name: reshape_3
      target_shape: !!python/tuple
      - 1
      - 1
      - 1
      - 64
      trainable: true
    inbound_nodes:
    - - - activation_75
        - 0
        - 0
        - {}
    name: reshape_3
  - class_name: AveragePooling3D
    config:
      data_format: channels_last
      dtype: float32
      name: average_pooling3d
      padding: same
      pool_size: &id028 !!python/tuple
      - 2
      - 2
      - 2
      strides: &id029 !!python/tuple
      - 2
      - 2
      - 2
      trainable: true
    inbound_nodes:
    - - - activation_57
        - 0
        - 0
        - {}
    name: average_pooling3d
  - class_name: Multiply
    config:
      dtype: float32
      name: multiply_3
      trainable: true
    inbound_nodes:
    - - - batch_normalization_v1_68
        - 0
        - 0
        - &id019 {}
      - - reshape_3
        - 0
        - 0
        - *id019
    name: multiply_3
  - class_name: Lambda
    config:
      arguments: {}
      dtype: float32
      function: !!python/tuple
      - '4wEAAAAAAAAAAQAAAAgAAAATAAAAcyoAAAB0AGoBfABkAWQBZwJkAWQBZwJkAWQBZwJkAWQBZwKI

        AIgAZwJnBYMCUwApAk7pAAAAACkC2gJ0ZtoDcGFkKQHaAl94KQHaB2NoYW5uZWypAPpAL2hvbWUv

        b3ZzLWRsL2dpdC9HcmFkYWJsZV9pbWFnZV9jbGFzc2lmaWVyL0ZJTkFML3NlX3Jlc25ldF8zZC5w

        edoIPGxhbWJkYT5xAAAA8wAAAAA=

        '
      - null
      - !!python/tuple
        - 16
      function_type: lambda
      module: se_resnet_3d
      name: lambda
      output_shape: !!python/tuple
      - null
      - 25
      - 128
      - 25
      - 64
      output_shape_module: null
      output_shape_type: raw
      trainable: true
    inbound_nodes:
    - - - average_pooling3d
        - 0
        - 0
        - {}
    name: lambda
  - class_name: Add
    config:
      dtype: float32
      name: add_3
      trainable: true
    inbound_nodes:
    - - - multiply_3
        - 0
        - 0
        - &id020 {}
      - - lambda
        - 0
        - 0
        - *id020
    name: add_3
  - class_name: Activation
    config:
      activation: relu
      dtype: float32
      name: activation_76
      trainable: true
    inbound_nodes:
    - - - add_3
        - 0
        - 0
        - {}
    name: activation_76
  - class_name: Conv3D
    config:
      activation: linear
      activity_regularizer: null
      bias_constraint: null
      bias_initializer:
        class_name: Zeros
        config:
          dtype: float32
      bias_regularizer: null
      data_format: channels_last
      dilation_rate: *id001
      dtype: float32
      filters: 32
      kernel_constraint: null
      kernel_initializer:
        class_name: GlorotUniform
        config:
          dtype: float32
          seed: null
      kernel_regularizer: null
      kernel_size: *id002
      name: conv3d_69
      padding: same
      strides: *id003
      trainable: true
      use_bias: true
    inbound_nodes:
    - - - activation_76
        - 0
        - 0
        - {}
    name: conv3d_69
  - class_name: Conv3D
    config:
      activation: linear
      activity_regularizer: null
      bias_constraint: null
      bias_initializer:
        class_name: Zeros
        config:
          dtype: float32
      bias_regularizer: null
      data_format: channels_last
      dilation_rate: *id001
      dtype: float32
      filters: 32
      kernel_constraint: null
      kernel_initializer:
        class_name: GlorotUniform
        config:
          dtype: float32
          seed: null
      kernel_regularizer: null
      kernel_size: *id002
      name: conv3d_71
      padding: same
      strides: *id003
      trainable: true
      use_bias: true
    inbound_nodes:
    - - - activation_76
        - 0
        - 0
        - {}
    name: conv3d_71
  - class_name: Conv3D
    config:
      activation: linear
      activity_regularizer: null
      bias_constraint: null
      bias_initializer:
        class_name: Zeros
        config:
          dtype: float32
      bias_regularizer: null
      data_format: channels_last
      dilation_rate: *id001
      dtype: float32
      filters: 32
      kernel_constraint: null
      kernel_initializer:
        class_name: GlorotUniform
        config:
          dtype: float32
          seed: null
      kernel_regularizer: null
      kernel_size: *id002
      name: conv3d_73
      padding: same
      strides: *id003
      trainable: true
      use_bias: true
    inbound_nodes:
    - - - activation_76
        - 0
        - 0
        - {}
    name: conv3d_73
  - class_name: Conv3D
    config:
      activation: linear
      activity_regularizer: null
      bias_constraint: null
      bias_initializer:
        class_name: Zeros
        config:
          dtype: float32
      bias_regularizer: null
      data_format: channels_last
      dilation_rate: *id001
      dtype: float32
      filters: 32
      kernel_constraint: null
      kernel_initializer:
        class_name: GlorotUniform
        config:
          dtype: float32
          seed: null
      kernel_regularizer: null
      kernel_size: *id002
      name: conv3d_75
      padding: same
      strides: *id003
      trainable: true
      use_bias: true
    inbound_nodes:
    - - - activation_76
        - 0
        - 0
        - {}
    name: conv3d_75
  - class_name: Conv3D
    config:
      activation: linear
      activity_regularizer: null
      bias_constraint: null
      bias_initializer:
        class_name: Zeros
        config:
          dtype: float32
      bias_regularizer: null
      data_format: channels_last
      dilation_rate: *id001
      dtype: float32
      filters: 32
      kernel_constraint: null
      kernel_initializer:
        class_name: GlorotUniform
        config:
          dtype: float32
          seed: null
      kernel_regularizer: null
      kernel_size: *id002
      name: conv3d_77
      padding: same
      strides: *id003
      trainable: true
      use_bias: true
    inbound_nodes:
    - - - activation_76
        - 0
        - 0
        - {}
    name: conv3d_77
  - class_name: Conv3D
    config:
      activation: linear
      activity_regularizer: null
      bias_constraint: null
      bias_initializer:
        class_name: Zeros
        config:
          dtype: float32
      bias_regularizer: null
      data_format: channels_last
      dilation_rate: *id001
      dtype: float32
      filters: 32
      kernel_constraint: null
      kernel_initializer:
        class_name: GlorotUniform
        config:
          dtype: float32
          seed: null
      kernel_regularizer: null
      kernel_size: *id002
      name: conv3d_79
      padding: same
      strides: *id003
      trainable: true
      use_bias: true
    inbound_nodes:
    - - - activation_76
        - 0
        - 0
        - {}
    name: conv3d_79
  - class_name: Conv3D
    config:
      activation: linear
      activity_regularizer: null
      bias_constraint: null
      bias_initializer:
        class_name: Zeros
        config:
          dtype: float32
      bias_regularizer: null
      data_format: channels_last
      dilation_rate: *id001
      dtype: float32
      filters: 32
      kernel_constraint: null
      kernel_initializer:
        class_name: GlorotUniform
        config:
          dtype: float32
          seed: null
      kernel_regularizer: null
      kernel_size: *id002
      name: conv3d_81
      padding: same
      strides: *id003
      trainable: true
      use_bias: true
    inbound_nodes:
    - - - activation_76
        - 0
        - 0
        - {}
    name: conv3d_81
  - class_name: Conv3D
    config:
      activation: linear
      activity_regularizer: null
      bias_constraint: null
      bias_initializer:
        class_name: Zeros
        config:
          dtype: float32
      bias_regularizer: null
      data_format: channels_last
      dilation_rate: *id001
      dtype: float32
      filters: 32
      kernel_constraint: null
      kernel_initializer:
…
      beta_constraint: null
      beta_initializer:
        class_name: Zeros
        config:
          dtype: float32
      beta_regularizer: null
      center: true
      dtype: float32
      epsilon: 0.001
      gamma_constraint: null
      gamma_initializer:
        class_name: Ones
        config:
          dtype: float32
      gamma_regularizer: null
      momentum: 0.99
      moving_mean_initializer:
        class_name: Zeros
        config:
          dtype: float32
      moving_variance_initializer:
        class_name: Ones
        config:
          dtype: float32
      name: batch_normalization_v1_276
      scale: true
      trainable: true
    inbound_nodes:
    - - - conv3d_276
        - 0
        - 0
        - training: true
    name: batch_normalization_v1_276
  - class_name: BatchNormalizationV1
    config:
      axis:
      - 4
      beta_constraint: null
      beta_initializer:
        class_name: Zeros
        config:
          dtype: float32
      beta_regularizer: null
      center: true
      dtype: float32
      epsilon: 0.001
      gamma_constraint: null
      gamma_initializer:
        class_name: Ones
        config:
          dtype: float32
      gamma_regularizer: null
      momentum: 0.99
      moving_mean_initializer:
        class_name: Zeros
        config:
          dtype: float32
      moving_variance_initializer:
        class_name: Ones
        config:
          dtype: float32
      name: batch_normalization_v1_278
      scale: true
      trainable: true
    inbound_nodes:
    - - - conv3d_278
        - 0
        - 0
        - training: true
    name: batch_normalization_v1_278
  - class_name: BatchNormalizationV1
    config:
      axis:
      - 4
      beta_constraint: null
      beta_initializer:
        class_name: Zeros
        config:
          dtype: float32
      beta_regularizer: null
      center: true
      dtype: float32
      epsilon: 0.001
      gamma_constraint: null
      gamma_initializer:
        class_name: Ones
        config:
          dtype: float32
      gamma_regularizer: null
      momentum: 0.99
      moving_mean_initializer:
        class_name: Zeros
        config:
          dtype: float32
      moving_variance_initializer:
        class_name: Ones
        config:
          dtype: float32
      name: batch_normalization_v1_280
      scale: true
      trainable: true
    inbound_nodes:
    - - - conv3d_280
        - 0
        - 0
        - training: true
    name: batch_normalization_v1_280
  - class_name: BatchNormalizationV1
    config:
      axis:
      - 4
      beta_constraint: null
      beta_initializer:
        class_name: Zeros
        config:
          dtype: float32
      beta_regularizer: null
      center: true
      dtype: float32
      epsilon: 0.001
      gamma_constraint: null
      gamma_initializer:
        class_name: Ones
        config:
          dtype: float32
      gamma_regularizer: null
      momentum: 0.99
      moving_mean_initializer:
        class_name: Zeros
        config:
          dtype: float32
      moving_variance_initializer:
        class_name: Ones
        config:
          dtype: float32
      name: batch_normalization_v1_282
      scale: true
      trainable: true
    inbound_nodes:
    - - - conv3d_282
        - 0
        - 0
        - training: true
    name: batch_normalization_v1_282
  - class_name: BatchNormalizationV1
    config:
      axis:
      - 4
      beta_constraint: null
      beta_initializer:
        class_name: Zeros
        config:
          dtype: float32
      beta_regularizer: null
      center: true
      dtype: float32
      epsilon: 0.001
      gamma_constraint: null
      gamma_initializer:
        class_name: Ones
        config:
          dtype: float32
      gamma_regularizer: null
      momentum: 0.99
      moving_mean_initializer:
        class_name: Zeros
        config:
          dtype: float32
      moving_variance_initializer:
        class_name: Ones
        config:
          dtype: float32
      name: batch_normalization_v1_284
      scale: true
      trainable: true
    inbound_nodes:
    - - - conv3d_284
        - 0
        - 0
        - training: true
    name: batch_normalization_v1_284
  - class_name: BatchNormalizationV1
    config:
      axis:
      - 4
      beta_constraint: null
      beta_initializer:
        class_name: Zeros
        config:
          dtype: float32
      beta_regularizer: null
      center: true
      dtype: float32
      epsilon: 0.001
      gamma_constraint: null
      gamma_initializer:
        class_name: Ones
        config:
          dtype: float32
      gamma_regularizer: null
      momentum: 0.99
      moving_mean_initializer:
        class_name: Zeros
        config:
          dtype: float32
      moving_variance_initializer:
        class_name: Ones
        config:
          dtype: float32
      name: batch_normalization_v1_286
      scale: true
      trainable: true
    inbound_nodes:
    - - - conv3d_286
        - 0
        - 0
        - training: true
    name: batch_normalization_v1_286
  - class_name: BatchNormalizationV1
    config:
      axis:
      - 4
      beta_constraint: null
      beta_initializer:
        class_name: Zeros
        config:
          dtype: float32
      beta_regularizer: null
      center: true
      dtype: float32
      epsilon: 0.001
      gamma_constraint: null
      gamma_initializer:
        class_name: Ones
        config:
          dtype: float32
      gamma_regularizer: null
      momentum: 0.99
      moving_mean_initializer:
        class_name: Zeros
        config:
          dtype: float32
      moving_variance_initializer:
        class_name: Ones
        config:
          dtype: float32
      name: batch_normalization_v1_288
      scale: true
      trainable: true
    inbound_nodes:
    - - - conv3d_288
        - 0
        - 0
        - training: true
    name: batch_normalization_v1_288
  - class_name: Activation
    config:
      activation: relu
      dtype: float32
      name: activation_306
      trainable: true
    inbound_nodes:
    - - - batch_normalization_v1_274
        - 0
        - 0
        - {}
    name: activation_306
  - class_name: Activation
    config:
      activation: relu
      dtype: float32
      name: activation_308
      trainable: true
    inbound_nodes:
    - - - batch_normalization_v1_276
        - 0
        - 0
        - {}
    name: activation_308
  - class_name: Activation
    config:
      activation: relu
      dtype: float32
      name: activation_310
      trainable: true
    inbound_nodes:
    - - - batch_normalization_v1_278
        - 0
        - 0
        - {}
    name: activation_310
  - class_name: Activation
    config:
      activation: relu
      dtype: float32
      name: activation_312
      trainable: true
    inbound_nodes:
    - - - batch_normalization_v1_280
        - 0
        - 0
        - {}
    name: activation_312
  - class_name: Activation
    config:
      activation: relu
      dtype: float32
      name: activation_314
      trainable: true
    inbound_nodes:
    - - - batch_normalization_v1_282
        - 0
        - 0
        - {}
    name: activation_314
  - class_name: Activation
    config:
      activation: relu
      dtype: float32
      name: activation_316
      trainable: true
    inbound_nodes:
    - - - batch_normalization_v1_284
        - 0
        - 0
        - {}
    name: activation_316
  - class_name: Activation
    config:
      activation: relu
      dtype: float32
      name: activation_318
      trainable: true
    inbound_nodes:
    - - - batch_normalization_v1_286
        - 0
        - 0
        - {}
    name: activation_318
  - class_name: Activation
    config:
      activation: relu
      dtype: float32
      name: activation_320
      trainable: true
    inbound_nodes:
    - - - batch_normalization_v1_288
        - 0
        - 0
        - {}
    name: activation_320
  - class_name: Concatenate
    config:
      axis: -1
      dtype: float32
      name: concatenate_16
      trainable: true
    inbound_nodes:
    - - - activation_306
        - 0
        - 0
        - &id059 {}
      - - activation_308
        - 0
        - 0
        - *id059
      - - activation_310
        - 0
        - 0
        - *id059
      - - activation_312
        - 0
        - 0
        - *id059
      - - activation_314
        - 0
        - 0
        - *id059
      - - activation_316
        - 0
        - 0
        - *id059
      - - activation_318
        - 0
        - 0
        - *id059
      - - activation_320
        - 0
        - 0
        - *id059
    name: concatenate_16
  - class_name: Conv3D
    config:
      activation: linear
      activity_regularizer: null
      bias_constraint: null
      bias_initializer:
        class_name: Zeros
        config:
          dtype: float32
      bias_regularizer: null
      data_format: channels_last
      dilation_rate: *id001
      dtype: float32
      filters: 1024
      kernel_constraint: null
      kernel_initializer:
        class_name: GlorotUniform
        config:
          dtype: float32
          seed: null
      kernel_regularizer: null
      kernel_size: *id010
      name: conv3d_289
      padding: same
      strides: *id011
      trainable: true
      use_bias: true
    inbound_nodes:
    - - - concatenate_16
        - 0
        - 0
        - {}
    name: conv3d_289
  - class_name: BatchNormalizationV1
    config:
      axis:
      - 4
      beta_constraint: null
      beta_initializer:
        class_name: Zeros
        config:
          dtype: float32
      beta_regularizer: null
      center: true
      dtype: float32
      epsilon: 0.001
      gamma_constraint: null
      gamma_initializer:
        class_name: Ones
        config:
          dtype: float32
      gamma_regularizer: null
      momentum: 0.99
      moving_mean_initializer:
        class_name: Zeros
        config:
          dtype: float32
      moving_variance_initializer:
        class_name: Ones
        config:
          dtype: float32
      name: batch_normalization_v1_289
      scale: true
      trainable: true
    inbound_nodes:
    - - - conv3d_289
        - 0
        - 0
        - training: true
    name: batch_normalization_v1_289
  - class_name: GlobalAveragePooling3D
    config:
      data_format: channels_last
      dtype: float32
      name: global_average_pooling3d_16
      trainable: true
    inbound_nodes:
    - - - batch_normalization_v1_289
        - 0
        - 0
        - {}
    name: global_average_pooling3d_16
  - class_name: Dense
    config:
      activation: linear
      activity_regularizer: null
      bias_constraint: null
      bias_initializer:
        class_name: Zeros
        config:
          dtype: float32
      bias_regularizer: null
      dtype: float32
      kernel_constraint: null
      kernel_initializer:
        class_name: GlorotUniform
        config:
          dtype: float32
          seed: null
      kernel_regularizer: null
      name: dense_32
      trainable: true
      units: 256
      use_bias: true
    inbound_nodes:
    - - - global_average_pooling3d_16
        - 0
        - 0
        - {}
    name: dense_32
  - class_name: Activation
    config:
      activation: relu
      dtype: float32
      name: activation_321
      trainable: true
    inbound_nodes:
    - - - dense_32
        - 0
        - 0
        - {}
    name: activation_321
  - class_name: Dense
    config:
      activation: linear
      activity_regularizer: null
      bias_constraint: null
      bias_initializer:
        class_name: Zeros
        config:
          dtype: float32
      bias_regularizer: null
      dtype: float32
      kernel_constraint: null
      kernel_initializer:
        class_name: GlorotUniform
        config:
          dtype: float32
          seed: null
      kernel_regularizer: null
      name: dense_33
      trainable: true
      units: 1024
      use_bias: true
    inbound_nodes:
    - - - activation_321
        - 0
        - 0
        - {}
    name: dense_33
  - class_name: Activation
    config:
      activation: sigmoid
      dtype: float32
      name: activation_322
      trainable: true
    inbound_nodes:
    - - - dense_33
        - 0
        - 0
        - {}
    name: activation_322
  - class_name: Reshape
    config:
      dtype: float32
      name: reshape_16
      target_shape: !!python/tuple
      - 1
      - 1
      - 1
      - 1024
      trainable: true
    inbound_nodes:
    - - - activation_322
        - 0
        - 0
        - {}
    name: reshape_16
  - class_name: Multiply
    config:
      dtype: float32
      name: multiply_16
      trainable: true
    inbound_nodes:
    - - - batch_normalization_v1_289
        - 0
        - 0
        - &id060 {}
      - - reshape_16
        - 0
        - 0
        - *id060
    name: multiply_16
  - class_name: Add
    config:
      dtype: float32
      name: add_16
      trainable: true
    inbound_nodes:
    - - - multiply_16
        - 0
        - 0
        - &id061 {}
      - - activation_304
        - 0
        - 0
        - *id061
    name: add_16
  - class_name: Activation
    config:
      activation: relu
      dtype: float32
      name: activation_323
      trainable: true
    inbound_nodes:
    - - - add_16
        - 0
        - 0
        - {}
    name: activation_323
  - class_name: Conv3D
    config:
      activation: linear
      activity_regularizer: null
      bias_constraint: null
      bias_initializer:
        class_name: Zeros
        config:
          dtype: float32
      bias_regularizer: null
      data_format: channels_last
      dilation_rate: *id001
      dtype: float32
      filters: 32
      kernel_constraint: null
      kernel_initializer:
        class_name: GlorotUniform
        config:
          dtype: float32
          seed: null
      kernel_regularizer: null
      kernel_size: *id002
      name: conv3d_290
      padding: same
      strides: *id003
      trainable: true
      use_bias: true
    inbound_nodes:
    - - - activation_323
        - 0
        - 0
        - {}
    name: conv3d_290
  - class_name: Conv3D
    config:
      activation: linear
      activity_regularizer: null
      bias_constraint: null
      bias_initializer:
        class_name: Zeros
        config:
          dtype: float32
      bias_regularizer: null
      data_format: channels_last
      dilation_rate: *id001
      dtype: float32
      filters: 32
      kernel_constraint: null
      kernel_initializer:
        class_name: GlorotUniform
        config:
          dtype: float32
          seed: null
      kernel_regularizer: null
      kernel_size: *id002
      name: conv3d_292
      padding: same
      strides: *id003
      trainable: true
      use_bias: true
    inbound_nodes:
    - - - activation_323
        - 0
        - 0
        - {}
    name: conv3d_292
  - class_name: Conv3D
    config:
      activation: linear
      activity_regularizer: null
      bias_constraint: null
      bias_initializer:
        class_name: Zeros
        config:
          dtype: float32
      bias_regularizer: null
      data_format: channels_last
      dilation_rate: *id001
      dtype: float32
      filters: 32
      kernel_constraint: null
      kernel_initializer:
        class_name: GlorotUniform
        config:
          dtype: float32
          seed: null
      kernel_regularizer: null
      kernel_size: *id002
      name: conv3d_294
      padding: same
      strides: *id003
      trainable: true
      use_bias: true
    inbound_nodes:
    - - - activation_323
        - 0
        - 0
        - {}
    name: conv3d_294
  - class_name: Conv3D
    config:
      activation: linear
      activity_regularizer: null
      bias_constraint: null
      bias_initializer:
        class_name: Zeros
        config:
          dtype: float32
      bias_regularizer: null
      data_format: channels_last
      dilation_rate: *id001
      dtype: float32
      filters: 32
      kernel_constraint: null
      kernel_initializer:
        class_name: GlorotUniform
        config:
          dtype: float32
          seed: null
      kernel_regularizer: null
      kernel_size: *id002
      name: conv3d_296
      padding: same
      strides: *id003
      trainable: true
      use_bias: true
    inbound_nodes:
    - - - activation_323
        - 0
        - 0
        - {}
    name: conv3d_296
  - class_name: Conv3D
    config:
      activation: linear
      activity_regularizer: null
      bias_constraint: null
      bias_initializer:
        class_name: Zeros
        config:
          dtype: float32
      bias_regularizer: null
      data_format: channels_last
      dilation_rate: *id001
      dtype: float32
      filters: 32
      kernel_constraint: null
      kernel_initializer:
        class_name: GlorotUniform
        config:
          dtype: float32
          seed: null
      kernel_regularizer: null
      kernel_size: *id002
      name: conv3d_298
      padding: same
      strides: *id003
      trainable: true
      use_bias: true
    inbound_nodes:
    - - - activation_323
        - 0
        - 0
        - {}
    name: conv3d_298
  - class_name: Conv3D
    config:
      activation: linear
      activity_regularizer: null
      bias_constraint: null
      bias_initializer:
        class_name: Zeros
        config:
          dtype: float32
      bias_regularizer: null
      data_format: channels_last
      dilation_rate: *id001
      dtype: float32
      filters: 32
      kernel_constraint: null
      kernel_initializer:
        class_name: GlorotUniform
        config:
          dtype: float32
          seed: null
      kernel_regularizer: null
      kernel_size: *id002
      name: conv3d_300
      padding: same
      strides: *id003
      trainable: true
      use_bias: true
    inbound_nodes:
    - - - activation_323
        - 0
        - 0
        - {}
    name: conv3d_300
  - class_name: Conv3D
    config:
      activation: linear
      activity_regularizer: null
      bias_constraint: null
      bias_initializer:
        class_name: Zeros
        config:
          dtype: float32
      bias_regularizer: null
      data_format: channels_last
      dilation_rate: *id001
      dtype: float32
      filters: 32
      kernel_constraint: null
      kernel_initializer:
        class_name: GlorotUniform
        config:
          dtype: float32
          seed: null
      kernel_regularizer: null
      kernel_size: *id002
      name: conv3d_302
      padding: same
      strides: *id003
      trainable: true
      use_bias: true
    inbound_nodes:
    - - - activation_323
        - 0
        - 0
        - {}
    name: conv3d_302
  - class_name: Conv3D
    config:
      activation: linear
      activity_regularizer: null
      bias_constraint: null
      bias_initializer:
        class_name: Zeros
        config:
          dtype: float32
      bias_regularizer: null
      data_format: channels_last
      dilation_rate: *id001
      dtype: float32
      filters: 32
      kernel_constraint: null
      kernel_initializer:
        class_name: GlorotUniform
        config:
          dtype: float32
          seed: null
      kernel_regularizer: null
      kernel_size: *id002
      name: conv3d_304
      padding: same
      strides: *id003
      trainable: true
      use_bias: true
    inbound_nodes:
    - - - activation_323
        - 0
        - 0
        - {}
    name: conv3d_304
  - class_name: BatchNormalizationV1
    config:
      axis:
      - 4
      beta_constraint: null
      beta_initializer:
        class_name: Zeros
        config:
          dtype: float32
      beta_regularizer: null
      center: true
      dtype: float32
      epsilon: 0.001
      gamma_constraint: null
      gamma_initializer:
        class_name: Ones
        config:
          dtype: float32
      gamma_regularizer: null
      momentum: 0.99
      moving_mean_initializer:
        class_name: Zeros
        config:
          dtype: float32
      moving_variance_initializer:
        class_name: Ones
        config:
          dtype: float32
      name: batch_normalization_v1_290
      scale: true
      trainable: true
    inbound_nodes:
    - - - conv3d_290
        - 0
        - 0
        - training: true
    name: batch_normalization_v1_290
  - class_name: BatchNormalizationV1
    config:
      axis:
      - 4
      beta_constraint: null
      beta_initializer:
        class_name: Zeros
        config:
          dtype: float32
      beta_regularizer: null
      center: true
      dtype: float32
      epsilon: 0.001
      gamma_constraint: null
      gamma_initializer:
        class_name: Ones
        config:
          dtype: float32
      gamma_regularizer: null
      momentum: 0.99
      moving_mean_initializer:
        class_name: Zeros
        config:
          dtype: float32
      moving_variance_initializer:
        class_name: Ones
        config:
          dtype: float32
      name: batch_normalization_v1_292
      scale: true
      trainable: true
    inbound_nodes:
    - - - conv3d_292
        - 0
        - 0
        - training: true
    name: batch_normalization_v1_292
  - class_name: BatchNormalizationV1
    config:
      axis:
      - 4
      beta_constraint: null
      beta_initializer:
        class_name: Zeros
        config:
          dtype: float32
      beta_regularizer: null
      center: true
      dtype: float32
      epsilon: 0.001
      gamma_constraint: null
      gamma_initializer:
        class_name: Ones
        config:
          dtype: float32
      gamma_regularizer: null
      momentum: 0.99
      moving_mean_initializer:
        class_name: Zeros
        config:
          dtype: float32
      moving_variance_initializer:
        class_name: Ones
        config:
          dtype: float32
      name: batch_normalization_v1_294
      scale: true
      trainable: true
    inbound_nodes:
    - - - conv3d_294
        - 0
        - 0
        - training: true
    name: batch_normalization_v1_294
  - class_name: BatchNormalizationV1
    config:
      axis:
      - 4
      beta_constraint: null
      beta_initializer:
        class_name: Zeros
        config:
          dtype: float32
      beta_regularizer: null
      center: true
      dtype: float32
      epsilon: 0.001
      gamma_constraint: null
      gamma_initializer:
        class_name: Ones
        config:
          dtype: float32
      gamma_regularizer: null
      momentum: 0.99
      moving_mean_initializer:
        class_name: Zeros
        config:
          dtype: float32
      moving_variance_initializer:
        class_name: Ones
        config:
          dtype: float32
      name: batch_normalization_v1_296
      scale: true
      trainable: true
    inbound_nodes:
    - - - conv3d_296
        - 0
        - 0
        - training: true
    name: batch_normalization_v1_296
  - class_name: BatchNormalizationV1
    config:
      axis:
      - 4
      beta_constraint: null
      beta_initializer:
        class_name: Zeros
        config:
          dtype: float32
      beta_regularizer: null
      center: true
      dtype: float32
      epsilon: 0.001
      gamma_constraint: null
      gamma_initializer:
        class_name: Ones
        config:
          dtype: float32
      gamma_regularizer: null
      momentum: 0.99
      moving_mean_initializer:
        class_name: Zeros
        config:
          dtype: float32
      moving_variance_initializer:
        class_name: Ones
        config:
          dtype: float32
      name: batch_normalization_v1_298
      scale: true
      trainable: true
    inbound_nodes:
    - - - conv3d_298
        - 0
        - 0
        - training: true
    name: batch_normalization_v1_298
  - class_name: BatchNormalizationV1
    config:
      axis:
      - 4
      beta_constraint: null
      beta_initializer:
        class_name: Zeros
        config:
          dtype: float32
      beta_regularizer: null
      center: true
      dtype: float32
      epsilon: 0.001
      gamma_constraint: null
      gamma_initializer:
        class_name: Ones
        config:
          dtype: float32
      gamma_regularizer: null
      momentum: 0.99
      moving_mean_initializer:
        class_name: Zeros
        config:
          dtype: float32
      moving_variance_initializer:
        class_name: Ones
        config:
          dtype: float32
      name: batch_normalization_v1_300
      scale: true
      trainable: true
    inbound_nodes:
    - - - conv3d_300
        - 0
        - 0
        - training: true
    name: batch_normalization_v1_300
  - class_name: BatchNormalizationV1
    config:
      axis:
      - 4
      beta_constraint: null
      beta_initializer:
        class_name: Zeros
        config:
          dtype: float32
      beta_regularizer: null
      center: true
      dtype: float32
      epsilon: 0.001
      gamma_constraint: null
      gamma_initializer:
        class_name: Ones
        config:
          dtype: float32
      gamma_regularizer: null
      momentum: 0.99
      moving_mean_initializer:
        class_name: Zeros
        config:
          dtype: float32
      moving_variance_initializer:
        class_name: Ones
        config:
          dtype: float32
      name: batch_normalization_v1_302
      scale: true
      trainable: true
    inbound_nodes:
    - - - conv3d_302
        - 0
        - 0
        - training: true
    name: batch_normalization_v1_302
  - class_name: BatchNormalizationV1
    config:
      axis:
      - 4
      beta_constraint: null
      beta_initializer:
        class_name: Zeros
        config:
          dtype: float32
      beta_regularizer: null
      center: true
      dtype: float32
      epsilon: 0.001
      gamma_constraint: null
      gamma_initializer:
        class_name: Ones
        config:
          dtype: float32
      gamma_regularizer: null
      momentum: 0.99
      moving_mean_initializer:
        class_name: Zeros
        config:
          dtype: float32
      moving_variance_initializer:
        class_name: Ones
        config:
          dtype: float32
      name: batch_normalization_v1_304
      scale: true
      trainable: true
    inbound_nodes:
    - - - conv3d_304
        - 0
        - 0
        - training: true
    name: batch_normalization_v1_304
  - class_name: Activation
    config:
      activation: relu
      dtype: float32
      name: activation_324
      trainable: true
    inbound_nodes:
    - - - batch_normalization_v1_290
        - 0
        - 0
        - {}
    name: activation_324
  - class_name: Activation
    config:
      activation: relu
      dtype: float32
      name: activation_326
      trainable: true
    inbound_nodes:
    - - - batch_normalization_v1_292
        - 0
        - 0
        - {}
    name: activation_326
  - class_name: Activation
    config:
      activation: relu
      dtype: float32
      name: activation_328
      trainable: true
    inbound_nodes:
    - - - batch_normalization_v1_294
        - 0
        - 0
        - {}
    name: activation_328
  - class_name: Activation
    config:
      activation: relu
      dtype: float32
      name: activation_330
      trainable: true
    inbound_nodes:
    - - - batch_normalization_v1_296
        - 0
        - 0
        - {}
    name: activation_330
  - class_name: Activation
    config:
      activation: relu
      dtype: float32
      name: activation_332
      trainable: true
    inbound_nodes:
    - - - batch_normalization_v1_298
        - 0
        - 0
        - {}
    name: activation_332
  - class_name: Activation
    config:
      activation: relu
      dtype: float32
      name: activation_334
      trainable: true
    inbound_nodes:
    - - - batch_normalization_v1_300
        - 0
        - 0
        - {}
    name: activation_334
  - class_name: Activation
    config:
      activation: relu
      dtype: float32
      name: activation_336
      trainable: true
    inbound_nodes:
    - - - batch_normalization_v1_302
        - 0
        - 0
        - {}
    name: activation_336
  - class_name: Activation
    config:
      activation: relu
      dtype: float32
      name: activation_338
      trainable: true
    inbound_nodes:
    - - - batch_normalization_v1_304
        - 0
        - 0
        - {}
    name: activation_338
  - class_name: Conv3D
    config:
      activation: linear
      activity_regularizer: null
      bias_constraint: null
      bias_initializer:
        class_name: Zeros
        config:
          dtype: float32
      bias_regularizer: null
      data_format: channels_last
      dilation_rate: *id001
      dtype: float32
      filters: 32
      kernel_constraint: null
      kernel_initializer:
        class_name: GlorotUniform
        config:
          dtype: float32
          seed: null
      kernel_regularizer: null
      kernel_size: *id004
      name: conv3d_291
      padding: same
      strides: *id005
      trainable: true
      use_bias: true
    inbound_nodes:
    - - - activation_324
        - 0
        - 0
        - {}
    name: conv3d_291
  - class_name: Conv3D
    config:
      activation: linear
      activity_regularizer: null
      bias_constraint: null
      bias_initializer:
        class_name: Zeros
        config:
          dtype: float32
      bias_regularizer: null
      data_format: channels_last
      dilation_rate: *id001
      dtype: float32
      filters: 32
      kernel_constraint: null
      kernel_initializer:
        class_name: GlorotUniform
        config:
          dtype: float32
          seed: null
      kernel_regularizer: null
      kernel_size: *id004
      name: conv3d_293
      padding: same
      strides: *id005
      trainable: true
      use_bias: true
    inbound_nodes:
    - - - activation_326
        - 0
        - 0
        - {}
    name: conv3d_293
  - class_name: Conv3D
    config:
      activation: linear
      activity_regularizer: null
      bias_constraint: null
      bias_initializer:
        class_name: Zeros
        config:
          dtype: float32
      bias_regularizer: null
      data_format: channels_last
      dilation_rate: *id001
      dtype: float32
      filters: 32
      kernel_constraint: null
      kernel_initializer:
        class_name: GlorotUniform
        config:
          dtype: float32
          seed: null
      kernel_regularizer: null
      kernel_size: *id004
      name: conv3d_295
      padding: same
      strides: *id005
      trainable: true
      use_bias: true
    inbound_nodes:
    - - - activation_328
        - 0
        - 0
        - {}
    name: conv3d_295
  - class_name: Conv3D
    config:
      activation: linear
      activity_regularizer: null
      bias_constraint: null
      bias_initializer:
        class_name: Zeros
        config:
          dtype: float32
      bias_regularizer: null
      data_format: channels_last
      dilation_rate: *id001
      dtype: float32
      filters: 32
      kernel_constraint: null
      kernel_initializer:
        class_name: GlorotUniform
        config:
          dtype: float32
          seed: null
      kernel_regularizer: null
      kernel_size: *id004
      name: conv3d_297
      padding: same
      strides: *id005
      trainable: true
      use_bias: true
    inbound_nodes:
    - - - activation_330
        - 0
        - 0
        - {}
    name: conv3d_297
  - class_name: Conv3D
    config:
      activation: linear
      activity_regularizer: null
      bias_constraint: null
      bias_initializer:
        class_name: Zeros
        config:
          dtype: float32
      bias_regularizer: null
      data_format: channels_last
      dilation_rate: *id001
      dtype: float32
      filters: 32
      kernel_constraint: null
      kernel_initializer:
        class_name: GlorotUniform
        config:
          dtype: float32
          seed: null
      kernel_regularizer: null
      kernel_size: *id004
      name: conv3d_299
      padding: same
      strides: *id005
      trainable: true
      use_bias: true
    inbound_nodes:
    - - - activation_332
        - 0
        - 0
        - {}
    name: conv3d_299
  - class_name: Conv3D
    config:
      activation: linear
      activity_regularizer: null
      bias_constraint: null
      bias_initializer:
        class_name: Zeros
        config:
          dtype: float32
      bias_regularizer: null
      data_format: channels_last
      dilation_rate: *id001
      dtype: float32
      filters: 32
      kernel_constraint: null
      kernel_initializer:
        class_name: GlorotUniform
        config:
          dtype: float32
          seed: null
      kernel_regularizer: null
      kernel_size: *id004
      name: conv3d_301
      padding: same
      strides: *id005
      trainable: true
      use_bias: true
    inbound_nodes:
    - - - activation_334
        - 0
        - 0
        - {}
    name: conv3d_301
  - class_name: Conv3D
    config:
      activation: linear
      activity_regularizer: null
      bias_constraint: null
      bias_initializer:
        class_name: Zeros
        config:
          dtype: float32
      bias_regularizer: null
      data_format: channels_last
      dilation_rate: *id001
      dtype: float32
      filters: 32
      kernel_constraint: null
      kernel_initializer:
        class_name: GlorotUniform
        config:
          dtype: float32
          seed: null
      kernel_regularizer: null
      kernel_size: *id004
      name: conv3d_303
      padding: same
      strides: *id005
      trainable: true
      use_bias: true
    inbound_nodes:
    - - - activation_336
        - 0
        - 0
        - {}
    name: conv3d_303
  - class_name: Conv3D
    config:
      activation: linear
      activity_regularizer: null
      bias_constraint: null
      bias_initializer:
        class_name: Zeros
        config:
          dtype: float32
      bias_regularizer: null
      data_format: channels_last
      dilation_rate: *id001
      dtype: float32
      filters: 32
      kernel_constraint: null
      kernel_initializer:
        class_name: GlorotUniform
        config:
          dtype: float32
          seed: null
      kernel_regularizer: null
      kernel_size: *id004
      name: conv3d_305
      padding: same
      strides: *id005
      trainable: true
      use_bias: true
    inbound_nodes:
    - - - activation_338
        - 0
        - 0
        - {}
    name: conv3d_305
  - class_name: BatchNormalizationV1
    config:
      axis:
      - 4
      beta_constraint: null
      beta_initializer:
        class_name: Zeros
        config:
          dtype: float32
      beta_regularizer: null
      center: true
      dtype: float32
      epsilon: 0.001
      gamma_constraint: null
      gamma_initializer:
        class_name: Ones
        config:
          dtype: float32
      gamma_regularizer: null
      momentum: 0.99
      moving_mean_initializer:
        class_name: Zeros
        config:
          dtype: float32
      moving_variance_initializer:
        class_name: Ones
        config:
          dtype: float32
      name: batch_normalization_v1_291
      scale: true
      trainable: true
    inbound_nodes:
    - - - conv3d_291
        - 0
        - 0
        - training: true
    name: batch_normalization_v1_291
  - class_name: BatchNormalizationV1
    config:
      axis:
      - 4
      beta_constraint: null
      beta_initializer:
        class_name: Zeros
        config:
          dtype: float32
      beta_regularizer: null
      center: true
      dtype: float32
      epsilon: 0.001
      gamma_constraint: null
      gamma_initializer:
        class_name: Ones
        config:
          dtype: float32
      gamma_regularizer: null
      momentum: 0.99
      moving_mean_initializer:
        class_name: Zeros
        config:
          dtype: float32
      moving_variance_initializer:
        class_name: Ones
        config:
          dtype: float32
      name: batch_normalization_v1_293
      scale: true
      trainable: true
    inbound_nodes:
    - - - conv3d_293
        - 0
        - 0
        - training: true
    name: batch_normalization_v1_293
  - class_name: BatchNormalizationV1
    config:
      axis:
      - 4
      beta_constraint: null
      beta_initializer:
        class_name: Zeros
        config:
          dtype: float32
      beta_regularizer: null
      center: true
      dtype: float32
      epsilon: 0.001
      gamma_constraint: null
      gamma_initializer:
        class_name: Ones
        config:
          dtype: float32
      gamma_regularizer: null
      momentum: 0.99
      moving_mean_initializer:
        class_name: Zeros
        config:
          dtype: float32
      moving_variance_initializer:
        class_name: Ones
        config:
          dtype: float32
      name: batch_normalization_v1_295
      scale: true
      trainable: true
    inbound_nodes:
    - - - conv3d_295
        - 0
        - 0
        - training: true
    name: batch_normalization_v1_295
  - class_name: BatchNormalizationV1
    config:
      axis:
      - 4
      beta_constraint: null
      beta_initializer:
        class_name: Zeros
        config:
          dtype: float32
      beta_regularizer: null
      center: true
      dtype: float32
      epsilon: 0.001
      gamma_constraint: null
      gamma_initializer:
        class_name: Ones
        config:
          dtype: float32
      gamma_regularizer: null
      momentum: 0.99
      moving_mean_initializer:
        class_name: Zeros
        config:
          dtype: float32
      moving_variance_initializer:
        class_name: Ones
        config:
          dtype: float32
      name: batch_normalization_v1_297
      scale: true
      trainable: true
    inbound_nodes:
    - - - conv3d_297
        - 0
        - 0
        - training: true
    name: batch_normalization_v1_297
  - class_name: BatchNormalizationV1
    config:
      axis:
      - 4
      beta_constraint: null
      beta_initializer:
        class_name: Zeros
        config:
          dtype: float32
      beta_regularizer: null
      center: true
      dtype: float32
      epsilon: 0.001
      gamma_constraint: null
      gamma_initializer:
        class_name: Ones
        config:
          dtype: float32
      gamma_regularizer: null
      momentum: 0.99
      moving_mean_initializer:
        class_name: Zeros
        config:
          dtype: float32
      moving_variance_initializer:
        class_name: Ones
        config:
          dtype: float32
      name: batch_normalization_v1_299
      scale: true
      trainable: true
    inbound_nodes:
    - - - conv3d_299
        - 0
        - 0
        - training: true
    name: batch_normalization_v1_299
  - class_name: BatchNormalizationV1
    config:
      axis:
      - 4
      beta_constraint: null
      beta_initializer:
        class_name: Zeros
        config:
          dtype: float32
      beta_regularizer: null
      center: true
      dtype: float32
      epsilon: 0.001
      gamma_constraint: null
      gamma_initializer:
        class_name: Ones
        config:
          dtype: float32
      gamma_regularizer: null
      momentum: 0.99
      moving_mean_initializer:
        class_name: Zeros
        config:
          dtype: float32
      moving_variance_initializer:
        class_name: Ones
        config:
          dtype: float32
      name: batch_normalization_v1_301
      scale: true
      trainable: true
    inbound_nodes:
    - - - conv3d_301
        - 0
        - 0
        - training: true
    name: batch_normalization_v1_301
  - class_name: BatchNormalizationV1
    config:
      axis:
      - 4
      beta_constraint: null
      beta_initializer:
        class_name: Zeros
        config:
          dtype: float32
      beta_regularizer: null
      center: true
      dtype: float32
      epsilon: 0.001
      gamma_constraint: null
      gamma_initializer:
        class_name: Ones
        config:
          dtype: float32
      gamma_regularizer: null
      momentum: 0.99
      moving_mean_initializer:
        class_name: Zeros
        config:
          dtype: float32
      moving_variance_initializer:
        class_name: Ones
        config:
          dtype: float32
      name: batch_normalization_v1_303
      scale: true
      trainable: true
    inbound_nodes:
    - - - conv3d_303
        - 0
        - 0
        - training: true
    name: batch_normalization_v1_303
  - class_name: BatchNormalizationV1
    config:
      axis:
      - 4
      beta_constraint: null
      beta_initializer:
        class_name: Zeros
        config:
          dtype: float32
      beta_regularizer: null
      center: true
      dtype: float32
      epsilon: 0.001
      gamma_constraint: null
      gamma_initializer:
        class_name: Ones
        config:
          dtype: float32
      gamma_regularizer: null
      momentum: 0.99
      moving_mean_initializer:
        class_name: Zeros
        config:
          dtype: float32
      moving_variance_initializer:
        class_name: Ones
        config:
          dtype: float32
      name: batch_normalization_v1_305
      scale: true
      trainable: true
    inbound_nodes:
    - - - conv3d_305
        - 0
        - 0
        - training: true
    name: batch_normalization_v1_305
  - class_name: Activation
    config:
      activation: relu
      dtype: float32
      name: activation_325
      trainable: true
    inbound_nodes:
    - - - batch_normalization_v1_291
        - 0
        - 0
        - {}
    name: activation_325
  - class_name: Activation
    config:
      activation: relu
      dtype: float32
      name: activation_327
      trainable: true
    inbound_nodes:
    - - - batch_normalization_v1_293
        - 0
        - 0
        - {}
    name: activation_327
  - class_name: Activation
    config:
      activation: relu
      dtype: float32
      name: activation_329
      trainable: true
    inbound_nodes:
    - - - batch_normalization_v1_295
        - 0
        - 0
        - {}
    name: activation_329
  - class_name: Activation
    config:
      activation: relu
      dtype: float32
      name: activation_331
      trainable: true
    inbound_nodes:
    - - - batch_normalization_v1_297
        - 0
        - 0
        - {}
    name: activation_331
  - class_name: Activation
    config:
      activation: relu
      dtype: float32
      name: activation_333
      trainable: true
    inbound_nodes:
    - - - batch_normalization_v1_299
        - 0
        - 0
        - {}
    name: activation_333
  - class_name: Activation
    config:
      activation: relu
      dtype: float32
      name: activation_335
      trainable: true
    inbound_nodes:
    - - - batch_normalization_v1_301
        - 0
        - 0
        - {}
    name: activation_335
  - class_name: Activation
    config:
      activation: relu
      dtype: float32
      name: activation_337
      trainable: true
    inbound_nodes:
    - - - batch_normalization_v1_303
        - 0
        - 0
        - {}
    name: activation_337
  - class_name: Activation
    config:
      activation: relu
      dtype: float32
      name: activation_339
      trainable: true
    inbound_nodes:
    - - - batch_normalization_v1_305
        - 0
        - 0
        - {}
    name: activation_339
  - class_name: Concatenate
    config:
      axis: -1
      dtype: float32
      name: concatenate_17
      trainable: true
    inbound_nodes:
    - - - activation_325
        - 0
        - 0
        - &id062 {}
      - - activation_327
        - 0
        - 0
        - *id062
      - - activation_329
        - 0
        - 0
        - *id062
      - - activation_331
        - 0
        - 0
        - *id062
      - - activation_333
        - 0
        - 0
        - *id062
      - - activation_335
        - 0
        - 0
        - *id062
      - - activation_337
        - 0
        - 0
        - *id062
      - - activation_339
        - 0
        - 0
        - *id062
    name: concatenate_17
  - class_name: Conv3D
    config:
      activation: linear
      activity_regularizer: null
      bias_constraint: null
      bias_initializer:
        class_name: Zeros
        config:
          dtype: float32
      bias_regularizer: null
      data_format: channels_last
      dilation_rate: *id001
      dtype: float32
      filters: 1024
      kernel_constraint: null
      kernel_initializer:
        class_name: GlorotUniform
        config:
          dtype: float32
          seed: null
      kernel_regularizer: null
      kernel_size: *id010
      name: conv3d_306
      padding: same
      strides: *id011
      trainable: true
      use_bias: true
    inbound_nodes:
    - - - concatenate_17
        - 0
        - 0
        - {}
    name: conv3d_306
  - class_name: BatchNormalizationV1
    config:
      axis:
      - 4
      beta_constraint: null
      beta_initializer:
        class_name: Zeros
        config:
          dtype: float32
      beta_regularizer: null
      center: true
      dtype: float32
      epsilon: 0.001
      gamma_constraint: null
      gamma_initializer:
        class_name: Ones
        config:
          dtype: float32
      gamma_regularizer: null
      momentum: 0.99
      moving_mean_initializer:
        class_name: Zeros
        config:
          dtype: float32
      moving_variance_initializer:
        class_name: Ones
        config:
          dtype: float32
      name: batch_normalization_v1_306
      scale: true
      trainable: true
    inbound_nodes:
    - - - conv3d_306
        - 0
        - 0
        - training: true
    name: batch_normalization_v1_306
  - class_name: GlobalAveragePooling3D
    config:
      data_format: channels_last
      dtype: float32
      name: global_average_pooling3d_17
      trainable: true
    inbound_nodes:
    - - - batch_normalization_v1_306
        - 0
        - 0
        - {}
    name: global_average_pooling3d_17
  - class_name: Dense
    config:
      activation: linear
      activity_regularizer: null
      bias_constraint: null
      bias_initializer:
        class_name: Zeros
        config:
          dtype: float32
      bias_regularizer: null
      dtype: float32
      kernel_constraint: null
      kernel_initializer:
        class_name: GlorotUniform
        config:
          dtype: float32
          seed: null
      kernel_regularizer: null
      name: dense_34
      trainable: true
      units: 256
      use_bias: true
    inbound_nodes:
    - - - global_average_pooling3d_17
        - 0
        - 0
        - {}
    name: dense_34
  - class_name: Activation
    config:
      activation: relu
      dtype: float32
      name: activation_340
      trainable: true
    inbound_nodes:
    - - - dense_34
        - 0
        - 0
        - {}
    name: activation_340
  - class_name: Dense
    config:
      activation: linear
      activity_regularizer: null
      bias_constraint: null
      bias_initializer:
        class_name: Zeros
        config:
          dtype: float32
      bias_regularizer: null
      dtype: float32
      kernel_constraint: null
      kernel_initializer:
        class_name: GlorotUniform
        config:
          dtype: float32
          seed: null
      kernel_regularizer: null
      name: dense_35
      trainable: true
      units: 1024
      use_bias: true
    inbound_nodes:
    - - - activation_340
        - 0
        - 0
        - {}
    name: dense_35
  - class_name: Activation
    config:
      activation: sigmoid
      dtype: float32
      name: activation_341
      trainable: true
    inbound_nodes:
    - - - dense_35
        - 0
        - 0
        - {}
    name: activation_341
  - class_name: Reshape
    config:
      dtype: float32
      name: reshape_17
      target_shape: !!python/tuple
      - 1
      - 1
      - 1
      - 1024
      trainable: true
    inbound_nodes:
    - - - activation_341
        - 0
        - 0
        - {}
    name: reshape_17
  - class_name: Multiply
    config:
      dtype: float32
      name: multiply_17
      trainable: true
    inbound_nodes:
    - - - batch_normalization_v1_306
        - 0
        - 0
        - &id063 {}
      - - reshape_17
        - 0
        - 0
        - *id063
    name: multiply_17
  - class_name: Add
    config:
      dtype: float32
      name: add_17
      trainable: true
    inbound_nodes:
    - - - multiply_17
        - 0
        - 0
        - &id064 {}
      - - activation_323
        - 0
        - 0
        - *id064
    name: add_17
  - class_name: Activation
    config:
      activation: relu
      dtype: float32
      name: activation_342
      trainable: true
    inbound_nodes:
    - - - add_17
        - 0
        - 0
        - {}
    name: activation_342
  - class_name: GlobalAveragePooling3D
    config:
      data_format: channels_last
      dtype: float32
      name: global_average_pooling3d_18
      trainable: true
    inbound_nodes:
    - - - activation_342
        - 0
        - 0
        - {}
    name: global_average_pooling3d_18
  - class_name: Flatten
    config:
      data_format: channels_last
      dtype: float32
      name: flatten
      trainable: true
    inbound_nodes:
    - - - global_average_pooling3d_18
        - 0
        - 0
        - {}
    name: flatten
  - class_name: Dense
    config:
      activation: softmax
      activity_regularizer: null
      bias_constraint: null
      bias_initializer:
        class_name: Zeros
        config:
          dtype: float32
      bias_regularizer: null
      dtype: float32
      kernel_constraint: null
      kernel_initializer:
        class_name: VarianceScaling
        config:
          distribution: truncated_normal
          dtype: float32
          mode: fan_in
          scale: 2.0
          seed: null
      kernel_regularizer:
        class_name: L1L2
        config:
          l1: 0.0
          l2: 9.999999747378752e-05
      name: final_fully_connected
      trainable: true
      units: 2
      use_bias: true
    inbound_nodes:
    - - - flatten
        - 0
        - 0
        - {}
    name: final_fully_connected
  name: model
  output_layers:
  - - final_fully_connected
    - 0
    - 0
keras_version: 2.2.4-tf
